checkpoint.pth.tar (torch, 672214 bytes, 58 tensors)

embedding.weight f4 [64, 92]
0	0x3cfa9cec	0.030592404
1	0xbd655153	-0.05598576
2	0xbc1235b2	-0.008923935
3	0xbdaa4930	-0.08314741
4	0x3d4f74dd	0.05064856
5	0x3d76da7b	0.060266953
6	0xbd1fb11f	-0.038987275
7	0x3d62a19c	0.055329904
8	0x3c4fdfa1	0.012687595
9	0x3d2dea07	0.042459514
10	0xbd6d717f	-0.057969566
11	0xbd8a2d7b	-0.06746956
12	0xbbd41c05	-0.0064730668
13	0xbdae8cf0	-0.085229754
14	0xbce549f4	-0.027989365
15	0xbdeca20d	-0.11554346
16	0xbd429851	-0.04750854
17	0x3dfa6135	0.12225572
18	0xbd8d862a	-0.069103554
19	0x3cb3dfb3	0.021957254
20	0xbc5fb97e	-0.013655065
21	0xbd8119fd	-0.06303785
22	0x3d9adc25	0.075615205
23	0x3d91616e	0.07098661
24	0xbcc836e5	-0.024440238
25	0x3b976fca	0.0046214806
26	0x3db30bce	0.08742486
27	0xbc5f0720	-0.013612539
28	0xbd34142c	-0.04396455
29	0xbdd97446	-0.106178805
30	0xbc725f30	-0.014793202
31	0x3d417196	0.047227465
32	0x3db21dc0	0.086970806
33	0x3cd56644	0.02604974
34	0x3c4396d8	0.011937819
35	0xbda1b339	-0.07895512
36	0x3d4c0003	0.0498047
37	0x3bc1157e	0.0058924546
38	0xbafdfdf6	-0.0019378054
39	0x3cce941d	0.02521711
40	0xbd8c21f7	-0.06842416
41	0x3da255b1	0.079265006
42	0xbded872e	-0.11598049
43	0xbdb28f02	-0.08718683
44	0x3d89cbf3	0.06728353
45	0xbd4b893f	-0.049691435
46	0x3cc105a2	0.023562256
47	0xbced6f2b	-0.028983673
48	0xbd4e0b67	-0.050303843
49	0xbdd9d65c	-0.10636589
50	0x3c992847	0.018695964
51	0x3d8d352f	0.068949096
52	0x3d3a5bea	0.045497812
53	0x3cfb82dd	0.030702049
54	0x3da7bf90	0.081908345
55	0xbd0e77ea	-0.034782328
56	0x38c1ab59	9.234873e-05
57	0x3ab7e4c8	0.0014029974
58	0x3d39a5f2	0.045324273
59	0x3d52caa9	0.051462803
60	0x3d473067	0.048630144
61	0xbd87942a	-0.06620057
62	0x3dae312c	0.085054725
63	0x3bf6e848	0.0075350143
64	0xbd95103f	-0.07278489
65	0x3d9aa781	0.0755148
66	0x3d2ec062	0.04266394
67	0x3d906555	0.070505776
68	0x3d8aff19	0.06786937
69	0xbdb75d21	-0.0895331
70	0x3d9b12ce	0.07571946
71	0x3cd89f14	0.026443042
72	0xbdb9a487	-0.09064584
73	0x3c8a4d3d	0.016882533
74	0xbdb923fc	-0.090400666
75	0x3db631b1	0.08896197
76	0x3c6c8800	0.014436722
77	0xbd4dd12b	-0.050248306
78	0x3c2306e1	0.0099503705
79	0x3d695f96	0.056975923
80	0xbd8db6a0	-0.069195986
81	0x3bd8cfa0	0.0066165477
82	0x3cc6c549	0.024263995
83	0x3ccb5362	0.024820033
84	0xbd1af975	-0.037835557
85	0x3d1318ee	0.035912447
86	0xbcc9af04	-0.024619587
87	0xbc4d3009	-0.0125236595
88	0xbc3ea71d	-0.011636523
89	0xbd892867	-0.06697159
90	0x3d854d24	0.06508854
91	0xbccaa13a	-0.024735082
92	0xbca55526	-0.020182204
93	0xbd0e8476	-0.034794293
94	0x3d337505	0.04381277
95	0x3d94cf50	0.07266104
96	0xbd83afaf	-0.06429993
97	0xbd93183f	-0.07182359
98	0xbd017815	-0.03160866
99	0xbbd80c05	-0.0065932297
100	0x3c888176	0.016663294
101	0xbd6b7142	-0.057481058
102	0xbd54e904	-0.051980034
103	0x3d93a643	0.07209446
104	0xbd88f371	-0.06687058
105	0xbd03cdff	-0.032178875
106	0xbd6482c2	-0.055788763
107	0xbd093b9e	-0.03350412
108	0xbcdb2e8d	-0.026755596
109	0xbd06d198	-0.032914728
110	0xbd833384	-0.0640631
111	0xbc4512bc	-0.012028392
112	0xbb8dc7dc	-0.0043268036
113	0xbd79158b	-0.06081156
114	0x3d8c0f35	0.06838838
115	0xbbab2a63	-0.0052235588
116	0xbd7fb071	-0.062424127
117	0x3dae9a89	0.08525569
118	0xbcc69694	-0.024241723
119	0x3dcc47b3	0.09974613
120	0x3d1d2597	0.038365927
121	0x3d5ef93b	0.054436903
122	0xbd0fc39c	-0.035098657
123	0xbcb98e80	-0.022650957
124	0xbc38c13f	-0.011276542
125	0xbdb176fc	-0.086652726
126	0xbc9736b8	-0.01845871
127	0x3cd182de	0.025575098
128	0x3d7e0f68	0.06202641
129	0xbd8910ae	-0.066926345
130	0xbd9add0b	-0.07561692
131	0xbbc3269b	-0.00595553
132	0xbd2dc968	-0.042428404
133	0xbdb3f148	-0.08786255
134	0xbcdf32f5	-0.027245978
135	0xbc6a7dc8	-0.014312215
136	0x3ba29360	0.004961416
137	0xbd82cbf5	-0.06386558
138	0x3d9bffd4	0.07617155
139	0x3d836fb7	0.06417792
140	0xbd9aee06	-0.075649306
141	0xbd45f052	-0.04832489
142	0xbcdcb25d	-0.026940519
143	0xb99b02dc	-0.00029566034
144	0x3d2095f7	0.039205518
145	0x3da9bd6c	0.082880825
146	0x3d5fb8ac	0.054619476
147	0x3d3eee5c	0.046614036
148	0x3d200223	0.039064538
149	0xbd302ef8	-0.043013543
150	0xbd44d3f4	-0.048053697
151	0x3c7f1a84	0.015570287
152	0xbda113ea	-0.078651264
153	0xbdbe0576	-0.09278385
154	0x3b70817d	0.0036698275
155	0x3d69e2e2	0.057101138
156	0xbd8b5295	-0.06802861
157	0xba1de8eb	-0.0006023782
158	0xbd8faeae	-0.070157394
159	0x3dc1009d	0.09423945
160	0x3cea8861	0.028629484
161	0x3d9dc7cd	0.077041246
162	0xbd7a3714	-0.061087683
163	0x3cd0aff4	0.025474526
164	0xbd2890c0	-0.04115367
165	0xbdb21397	-0.08695143
166	0xbd22cf7e	-0.03974866
167	0xbcbb2224	-0.022843428
168	0x3db35f65	0.087584294
169	0xbced9a08	-0.029004112
170	0xbcf9187c	-0.030407183
171	0x3dbc752d	0.09202037
172	0xbdb346c5	-0.087537326
173	0x3d8c0e96	0.068387195
174	0xbd1660e4	-0.036713496
175	0x3dc95b20	0.09831834
176	0xbb67c15e	-0.0035363059
177	0xbdaa35a8	-0.08311015
178	0xbd540f49	-0.05177239
179	0xbcfba477	-0.030718071
180	0xbdd1a1cb	-0.10235938
181	0x3d3d3cb0	0.046200454
182	0x3d2b3a8a	0.041803874
183	0xbd63b4bc	-0.055592284
184	0xbdade095	-0.08490101
185	0xbd8462c0	-0.064641476
186	0x3c67cd6a	0.014148096
187	0xbd0ddd29	-0.034634743
188	0x3dc52ec0	0.096280575
189	0xbd8f3680	-0.06992817
190	0xbd1e5eee	-0.03866475
191	0x3da9b62d	0.082867004
192	0xbc8b120a	-0.016976375
193	0xbce6a39f	-0.028154192
194	0xbe0bf302	-0.13666919
195	0xbd58c2e0	-0.052920222
196	0xbdd43e83	-0.10363486
197	0x3dcb2631	0.09919394
198	0x3db3813b	0.08764883
199	0x3ce4f378	0.027948126
200	0xbd2cca7c	-0.04218529
201	0xbdc3d2fa	-0.09561725
202	0xbcf7238a	-0.030168314
203	0x3c7b0bbe	0.015322624
204	0xbdc60085	-0.09668068
205	0x3ca4d6da	0.02012198
206	0x3ad6c6dd	0.001638617
207	0x3c744d34	0.014910985
208	0x3c2c4e36	0.010516694
209	0xbc8c5f83	-0.017135387
210	0x3db8ce4e	0.090237245
211	0x3d935c76	0.0719537
212	0xbd16b5e1	-0.036794547
213	0x3cafb35b	0.021447828
214	0xbd69b2d8	-0.057055324
215	0xbd6a7f09	-0.057250056
216	0x3daca78d	0.08430395
217	0xbd9d03e5	-0.076667584
218	0x3da0a0f7	0.078432016
219	0x3dd5cb2d	0.10439143
220	0xbd457707	-0.048209216
221	0x3d8e5a6a	0.06950839
222	0xbddb3aa1	-0.10704542
223	0x3d30d4d2	0.04317171
224	0xbc926cd9	-0.017874168
225	0x3c9facc2	0.019491557
226	0xbd8d8c92	-0.06911577
227	0x3dab145a	0.08353491
228	0xbd64bfe4	-0.055847064
229	0x3d00eb4d	0.0314744
230	0xbb8505da	-0.0040595355
231	0x3dd3cccc	0.10341796
232	0x3d7498b7	0.059715953
233	0xbcb89678	-0.022532687
234	0xbd8740c6	-0.066041514
235	0xbd78d9cd	-0.060754586
236	0xbdafb64b	-0.085796915
237	0xbd89e2be	-0.06732701
238	0xbdef9c22	-0.11699702
239	0xbdf4270f	-0.11921512
240	0xbb93d47d	-0.0045114146
241	0x3ca516ae	0.020152416
242	0x3e0ce07c	0.13757509
243	0xbd8b61d2	-0.06805767
244	0xbd8a651e	-0.06757568
245	0x3dc3f12a	0.09567483
246	0xbdae11e0	-0.08499503
247	0x3b9687a8	0.004593808
248	0x3cf0d0e4	0.029396482
249	0xbac7ebef	-0.0015252809
250	0x3db4c23b	0.08826109
251	0x3d75685e	0.059913985
252	0xbc3fccc6	-0.011706537
253	0xbd978616	-0.07398622
254	0x3d25e17f	0.040498253
255	0x3ce746e4	0.028232045

embedding.bias f4 [64]
0	0xbde7c686	-0.11317162
1	0x3d222a87	0.03959134
2	0xbd5953f0	-0.053058565
3	0xbd55c84f	-0.052192982
4	0x3d1274b1	0.035755817
5	0x3c59aba5	0.013285552
6	0xbd506ec4	-0.050886884
7	0x3c3f8eb6	0.01169174
8	0xbd6ab487	-0.05730107
9	0xbdca4d3f	-0.09878015
10	0xbdce40a3	-0.10070922
11	0xbdb05c77	-0.08611386
12	0xbd67bd5f	-0.056577083
13	0x3db2d6d6	0.08732383
14	0xbdba55f1	-0.09098423
15	0xbd66b789	-0.056327377
16	0x3dbd95fd	0.092571236
17	0x3ca461ca	0.02006616
18	0xbd411493	-0.04713876
19	0x3c2bbfa0	0.010482699
20	0x3df6d05b	0.120514594
21	0xbda6c93b	-0.081438504
22	0xbd69847d	-0.057011116
23	0x3cc19d52	0.023634586
24	0xbd15691c	-0.036477193
25	0xbd319c7d	-0.04336213
26	0x3d9795cf	0.074016206
27	0xbcf44918	-0.02982001
28	0x3da777d6	0.08177154
29	0x3cd9a2e1	0.026566925
30	0x3abbc19a	0.0014324666
31	0xbca4c775	-0.02011464
32	0x3d826321	0.063665636
33	0x3d912f52	0.07089104
34	0x3da7f401	0.08200837
35	0x3d23d70a	0.04
36	0xbcdfc936	-0.027317625
37	0xbaca5eb3	-0.00154396
38	0x3d535248	0.05159214
39	0xbd63d222	-0.05562032
40	0x3da526c6	0.08064036
41	0x3d477815	0.048698504
42	0xbdb7e1d5	-0.08978621
43	0xbd1ed7a0	-0.038779855
44	0x3c814568	0.015780166
45	0x3dbe612b	0.09295877
46	0x3b2d53f0	0.0026447736
47	0xbdf1010b	-0.11767777
48	0x3d24e2bf	0.040255304
49	0x3b8f12b9	0.0043662456
50	0x3daa9598	0.08329314
51	0x3d6c3f4d	0.057677556
52	0x3d8e341f	0.06943535
53	0xbdcd64aa	-0.10028966
54	0xbb820f41	-0.0039691036
55	0x3cf41f64	0.029800124
56	0xbc4e07ee	-0.012575133
57	0xbd68e0d6	-0.056855045
58	0x3c98acb1	0.018637033
59	0xbcecb24f	-0.028893618
60	0xbc0a2f99	-0.0084342
61	0x3cbce796	0.023059648
62	0xbd2c28ad	-0.04203098
63	0xbdc87d66	-0.09789543

convs.0.fc_full.weight f4 [128, 169]
0	0xbd281740	-0.041037798
1	0x3d8ffc67	0.07030564
2	0xbd48cd35	-0.049023826
3	0xbccc95e6	-0.02497382
4	0xbc756b04	-0.014979128
5	0xbd21c2da	-0.039492466
6	0x3d1cb990	0.038262904
7	0xbcc3b948	-0.02389206
8	0xbca8226e	-0.02052423
9	0xbd670440	-0.056400537
10	0x3d7a4360	0.06109941
11	0xbd9fea93	-0.07808413
12	0x3da453dc	0.080238074
13	0x3ce423b3	0.027849054
14	0x3d7935b9	0.06084225
15	0xbd85e796	-0.06538312
16	0xbc43a198	-0.011940382
17	0x3d8bb5dd	0.06821797
18	0xbbce97b6	-0.0063047064
19	0x3b720592	0.003692959
20	0x3d109901	0.035302166
21	0x3d7fe2b2	0.062472053
22	0xbd86e7b0	-0.0658716
23	0xbd35239f	-0.044223424
24	0x3c81eb46	0.015859257
25	0xbd90f7b4	-0.070784956
26	0x3d8571e5	0.06515864
27	0xbcf4b5a2	-0.029871766
28	0xbb93939f	-0.004503682
29	0x3d1ed117	0.038773622
30	0x3d8ac6d2	0.06776203
31	0x3d07691d	0.03305923
32	0xb8cd4fbf	-9.7900156e-05
33	0x3cfd67a0	0.030933201
34	0xbc89ea6d	-0.016835416
35	0x3c896c7f	0.016775368
36	0x3d969b10	0.073537946
37	0x3ce2aaa4	0.027669258
38	0xbd96d508	-0.07364851
39	0x3d18c2ca	0.03729514
40	0xbd9d61e7	-0.07684689
41	0x3ccb81ef	0.02484223
42	0xbdb472dd	-0.08810971
43	0xbd712909	-0.058877025
44	0x3c0f60ac	0.008751076
45	0xbc1e02f5	-0.00964426
46	0xbca080b5	-0.019592622
47	0x3d87b647	0.066265635
48	0xbd77bb48	-0.06048134
49	0x3cc4eb94	0.024038114
50	0xbd752c89	-0.059856925
51	0xbd0d6fb3	-0.034530353
52	0xbd82ebcd	-0.06392632
53	0xbafca742	-0.0019275921
54	0x3d5d4676	0.054022275
55	0x3d8a0bec	0.06740555
56	0x3c343ed5	0.011001308
57	0xbd53bc40	-0.0516932
58	0x3d94b6d9	0.07261438
59	0x3c1441fb	0.009048934
60	0x3b81d37a	0.0039619775
61	0xbc800255	-0.015626112
62	0x3c634b0c	0.013872873
63	0x3d680d1e	0.056653135
64	0xbd6a9bef	-0.057277616
65	0x3d3816f3	0.04494376
66	0xbd1d5acb	-0.038416665
67	0xbd3997f7	-0.04531094
68	0xbbca77b5	-0.006178821
69	0xbc392d75	-0.011302342
70	0x3c9d4f90	0.019202977
71	0xbcafd3c9	-0.021463292
72	0x3ce82e1c	0.0283423
73	0x3d8de650	0.06928694
74	0xbc3af3c1	-0.0114106545
75	0x3961c4b7	0.00021530954
76	0x3bbbb221	0.0057280217
77	0xbc12c098	-0.008957051
78	0xbae75137	-0.0017648105
79	0xbd114568	-0.03546658
80	0x3c34fded	0.011046869
81	0xbcbded25	-0.023184368
82	0xbc804484	-0.01565767
83	0x3c214612	0.009843366
84	0x3d2a2abd	0.041544665
85	0xbcb56d2c	-0.022146784
86	0x3dae697a	0.08516212
87	0xbdb37dbe	-0.08764218
88	0xbd8802d8	-0.066411674
89	0xbd47669f	-0.04868185
90	0xbd8051bb	-0.06265589
91	0xbc9a39aa	-0.018826324
92	0x3cd48bfb	0.025945654
93	0x3cfd4e5d	0.030921156
94	0xbcbce19a	-0.023056794
95	0xbb2a636d	-0.0025999204
96	0xbc9b3719	-0.018947171
97	0xbd54f0e5	-0.051987547
98	0xbd74b6d1	-0.05974466
99	0xbd462e7a	-0.048384167
100	0xbb9e95fa	-0.004839656
101	0xbdbf803d	-0.093506314
102	0x3d7da291	0.061922614
103	0x3c99783d	0.018734092
104	0x3d09a488	0.033604175
105	0x3d40d741	0.047080282
106	0xbd09c19c	-0.033631906
107	0x3d89c6ba	0.06727357
108	0xbcb26c57	-0.021780176
109	0x3d807776	0.06272785
110	0x3cdaf65c	0.026728801
111	0x3d0902da	0.033449985
112	0xbcc741fe	-0.02432346
113	0x3c2df7e3	0.010618183
114	0xbcd17fca	-0.02557363
115	0x3d86243c	0.0654988
116	0x3c96a3ef	0.018388717
117	0xbc995cf2	-0.018721078
118	0x3d2a3c2b	0.041561287
119	0x3cb09446	0.021555077
120	0xbd17cb61	-0.03705919
121	0xbd394087	-0.045227554
122	0x3da3a896	0.079911396
123	0xbd3e0916	-0.046395384
124	0x3da13dc9	0.07873113
125	0x3ce95866	0.028484534
126	0x3d3dcb8d	0.0463367
127	0xbdb00167	-0.085940175
128	0xbd55220d	-0.052034426
129	0x3d953cac	0.07286963
130	0xbd415c9e	-0.047207467
131	0x3d4b8429	0.049686585
132	0xbd41375c	-0.047171935
133	0x3ccbea35	0.024891952
134	0x3c992ed4	0.018699087
135	0xbdb73e62	-0.089474455
136	0x3cb9f78f	0.022701053
137	0x3ce9e35d	0.028550798
138	0x3d98173d	0.07426307
139	0xbc42fa66	-0.01190052
140	0xbca1e127	-0.019760681
141	0xbd845d38	-0.064630926
142	0xbd582870	-0.05277294
143	0x3d4950b1	0.04914922
144	0x3b83abaf	0.004018269
145	0xbcad8612	-0.021182094
146	0x3cfb4c57	0.03067605
147	0x3d588d47	0.052869108
148	0x3badbb29	0.0053018522
149	0x3d8eb1c9	0.069675036
150	0xbd804765	-0.062636174
151	0x3d1d7cfb	0.03844927
152	0x3d9e93ed	0.07743058
153	0x3d9f160c	0.07767877
154	0x3d7837f7	0.060600247
155	0xbd93cd73	-0.07216921
156	0xbc2a3b6c	-0.010390144
157	0xbcbf66c3	-0.02336443
158	0x3d97ac4f	0.07405912
159	0x3d3f4939	0.04670069
160	0xbd87a50e	-0.066232786
161	0xbb8366fb	-0.004010079
162	0x3cccb677	0.02498935
163	0x3d8bc01d	0.06823752
164	0xbd0a717a	-0.033799626
165	0x3d479450	0.048725426
166	0xbd55ddf0	-0.05221361
167	0x3d771da4	0.060331002
168	0xbd56a287	-0.052401092
169	0xbd050ae1	-0.032481078
170	0xbd397cac	-0.045284912
171	0x3da38b85	0.079855956
172	0xbc069c5d	-0.008215991
173	0x3ca584f6	0.020205002
174	0xbcfbd8e3	-0.030743068
175	0xbbcb4b2c	-0.0062040295
176	0xbd4165bc	-0.047216162
177	0xbca71433	-0.020395374
178	0x3d52af29	0.051436577
179	0xbc5de174	-0.013542522
180	0xbc8c3347	-0.017114295
181	0xbc85c68e	-0.01633003
182	0x3d4bb958	0.049737304
183	0x3cb6df99	0.022323417
184	0x3b86057b	0.004090009
185	0xbcbaa72c	-0.022784792
186	0xbca2126b	-0.019784173
187	0xbbcf983d	-0.006335287
188	0x3d1ab1a4	0.037767068
189	0xbd1619ea	-0.036645807
190	0x3d7cb844	0.061699167
191	0x3d3daf9c	0.046310052
192	0x3d334af8	0.043772668
193	0xbda126e4	-0.07868746
194	0xbd6e3c09	-0.058162723
195	0x3cd92599	0.026507186
196	0xbd80b927	-0.06285315
197	0xbd16c48a	-0.036808528
198	0xbc3c44eb	-0.011491041
199	0xbcd4d927	-0.025982453
200	0x3ce3241e	0.027727183
201	0xbce7a8ab	-0.02827867
202	0xbcdb7020	-0.026786864
203	0x3c1b0bfa	0.009463305
204	0xbd2fb8d9	-0.042900894
205	0xbc319cbc	-0.010840591
206	0x3ce513ec	0.027963601
207	0x3ce22065	0.027603338
208	0xbc1039e0	-0.008802861
209	0x3d782138	0.060578555
210	0x3c7212b5	0.014774968
211	0x3c015a90	0.007895127
212	0x3cf1a5d8	0.029498026
213	0xbd682289	-0.05667356
214	0xbae0b669	-0.0017144206
215	0xbbb2c50d	-0.005455619
216	0x3d67b399	0.056567762
217	0xbd14e89d	-0.03635465
218	0x3ccc5f4a	0.024947781
219	0xbd456304	-0.04819013
220	0xbd5d57b9	-0.054038737
221	0xbda55a0d	-0.080738164
222	0xbd8e684f	-0.06953489
223	0xbce7449d	-0.02823096
224	0x3acdb177	0.0015693147
225	0xbcb4469b	-0.022006324
226	0x3cb400cd	0.021973038
227	0x3d9be762	0.07612492
228	0x3ccb2ef6	0.024802666
229	0xbb875bee	-0.004130832
230	0xbc17eaa4	-0.009272251
231	0x3c8c4c66	0.017126273
232	0x3d82a97f	0.06379985
233	0x3d36e5ff	0.044652935
234	0xbd3fae52	-0.046797104
235	0x3d5bd265	0.053667445
236	0xbcae7681	-0.021296741
237	0xbd3fcaa6	-0.04682412
238	0xbd6ca2a6	-0.0577723
239	0xbc860f51	-0.016364725
240	0x3c9e22df	0.019303737
241	0x3d0b2195	0.033967573
242	0xbd01d928	-0.031701237
243	0x3c319952	0.010839777
244	0x3c35e88e	0.011102809
245	0x3dac0476	0.08399288
246	0x3ca64dc3	0.020300752
247	0xbd554443	-0.052067053
248	0xbc9a03d3	-0.018800652
249	0xbcef5f60	-0.029220283
250	0x3d3f3a75	0.04668661
251	0xbc110329	-0.008850851
252	0xbd5a04c2	-0.053227194
253	0x3da1e1fe	0.07904433
254	0xbdcd8b54	-0.1003634
255	0xbb83db68	-0.004023958

convs.0.fc_full.bias f4 [128]
0	0x3d6786a5	0.05652489
1	0xbca7d136	-0.020485502
2	0xbc357f18	-0.011077665
3	0x3d4d4e52	0.05012352
4	0xbcb755a2	-0.0223797
5	0x3c113059	0.008861625
6	0x3c77b260	0.0151182115
7	0xbc73a6c8	-0.014871307
8	0x3d5dddb9	0.05416653
9	0x3c42e957	0.011896453
10	0xbd82fd8c	-0.063960165
11	0x3d7a496f	0.061105188
12	0xbd5e70f1	-0.054306928
13	0x3aaba338	0.0013094908
14	0x3d2aa151	0.04165775
15	0x3c60bacb	0.01371641
16	0x3cbe795a	0.023251224
17	0xba62879f	-0.0008641425
18	0xbd991c35	-0.07476083
19	0xbbd73c20	-0.0065684468
20	0xbd6cea91	-0.057840887
21	0x3cea15ee	0.02857491
22	0xbd039065	-0.032120127
23	0xbd7b3dc5	-0.061338205
24	0xbc0f0f53	-0.008731681
25	0x3d257e61	0.040403727
26	0xbd1cfc8c	-0.038326785
27	0x3b43998d	0.0029846162
28	0xbbde24b8	-0.0067792796
29	0xbd6ccb23	-0.057810914
30	0xbcafdad5	-0.021466652
31	0x3d5cdcc5	0.05392148
32	0xbc95db43	-0.018293029
33	0xbd2a2c3d	-0.041546095
34	0xbd996139	-0.07489247
35	0xba869d1e	-0.0010270213
36	0xbd6365ca	-0.055516995
37	0xbc88246e	-0.016618934
38	0xbd020b41	-0.031749014
39	0xbc0df37e	-0.00866401
40	0x3d0ffbd4	0.03515227
41	0x3c517052	0.012783127
42	0x3d0244fe	0.031804077
43	0xbd713d5b	-0.058896404
44	0x3bac4420	0.0052571446
45	0xbd1ef18e	-0.038804583
46	0x3d82cf59	0.06387205
47	0xbd3625ba	-0.044469573
48	0x3d4ab8a9	0.049492512
49	0xbd395397	-0.045245733
50	0x3c91412e	0.017731275
51	0x3c766474	0.015038598
52	0x3c6d29c1	0.014475287
53	0x3a906b23	0.0011018257
54	0xbce7679b	-0.028247645
55	0xbc6de7ca	-0.014520595
56	0xbd286e53	-0.04112084
57	0xbd158e03	-0.036512386
58	0xbd928eac	-0.07156119
59	0xbc2bf6aa	-0.010495821
60	0x3c47398d	0.012159717
61	0xbcc5400a	-0.024078388
62	0x3d162df5	0.03666492
63	0xbcae2704	-0.021258838
64	0xbb37c44b	-0.0028040584
65	0xbd310db7	-0.04322597
66	0x3cf5902f	0.029975979
67	0xbd8e5994	-0.069506794
68	0x3d97a87f	0.07405185
69	0x3d43d338	0.047808856
70	0x3d2488e8	0.040169626
71	0x3d7142ff	0.058901783
72	0xbd55c0f1	-0.052185956
73	0xbd3f3ea9	-0.046690617
74	0x3d976eba	0.07394166
75	0x3d22ac48	0.03971508
76	0xbc394c49	-0.011309692
77	0xbd0830af	-0.033249553
78	0x3c7df5bb	0.015500481
79	0xbd00a00d	-0.031402636
80	0x3d7ead83	0.062177192
81	0xbd210435	-0.039310653
82	0xbb1a594b	-0.0023551758
83	0x3d68e105	0.05685522
84	0xbc7158e5	-0.014730667
85	0xbce65402	-0.02811623
86	0xbc951e8f	-0.018203048
87	0xbbd653c3	-0.006540747
88	0x3d8433df	0.06455206
89	0xbd7f1a67	-0.06228104
90	0x3d5c2903	0.05375005
91	0xbd9524cf	-0.07282411
92	0xbd19ff04	-0.037596717
93	0xbd583e8c	-0.052794024
94	0x3d514505	0.051091213
95	0x3bba6d4d	0.005689299
96	0x3d6a2365	0.05716266
97	0xbc0efea1	-0.0087277
98	0x3c6b81e4	0.01437423
99	0xbceb0396	-0.028688233
100	0x39af9857	0.00033492103
101	0x3d3f4d21	0.046704415
102	0x3c8b448a	0.017000455
103	0x3c3b8cb7	0.011447123
104	0xbd4a3033	-0.049362373
105	0x3d7cc383	0.061709892
106	0x3c8032bc	0.015649192
107	0x3d2f34ed	0.042775083
108	0xbd49849e	-0.04919874
109	0xbd1fa5dc	-0.038976535
110	0xbd617a1b	-0.05504809
111	0x3c93d656	0.01804654
112	0x3d6973aa	0.05699507
113	0xbd9ad90e	-0.07560931
114	0x3d163832	0.036674686
115	0xbd8fa657	-0.07014149
116	0x3b95e849	0.0045748097
117	0xbce2d8e3	-0.02769131
118	0xbcef2791	-0.029193671
119	0x3d93cbea	0.07216628
120	0x3d977145	0.07394651
121	0x3d4cd545	0.050008077
122	0x3ce814cf	0.028330235
123	0xbcfbedac	-0.03075298
124	0x3d8ef89d	0.06981013
125	0x3d4a5c8a	0.04940466
126	0xbd83c83c	-0.06434676
127	0x3cca5691	0.024699481

convs.0.bn1.weight f4 [128]
0	0x3f805922	1.0027201
1	0x3f7f0247	0.9961285
2	0x3f80b4f5	1.0055224
3	0x3f800879	1.0002586
4	0x3f7f158b	0.99642247
5	0x3f803e32	1.001898
6	0x3f80bb9d	1.0057255
7	0x3f81a66d	1.0128914
8	0x3f800d24	1.000401
9	0x3f81b0c0	1.0132065
10	0x3f8026bc	1.0011821
11	0x3f80c112	1.005892
12	0x3f816760	1.0109673
13	0x3f80566e	1.0026376
14	0x3f8053f1	1.0025617
15	0x3f807edd	1.0038716
16	0x3f803423	1.0015911
17	0x3f81235e	1.0088918
18	0x3f80ae8d	1.0053269
19	0x3f80ae54	1.0053201
20	0x3f819dca	1.0126278
21	0x3f837bff	1.0272216
22	0x3f810a97	1.0081357
23	0x3f97421f	1.1817054
24	0x3f815915	1.0105311
25	0x3f8053b0	1.0025539
26	0x3f80bab9	1.0056983
27	0x3f80a598	1.0050535
28	0x3f81b384	1.0132909
29	0x3f7edbd8	0.99554205
30	0x3f827db3	1.019461
31	0x3f804597	1.0021237
32	0x3f809394	1.0045037
33	0x3f800ba1	1.0003549
34	0x3f7f1cd4	0.99653363
35	0x3f801357	1.0005902
36	0x3f840bfb	1.0316156
37	0x3f80c9b9	1.0061561
38	0x3f81a584	1.0128636
39	0x3f8076e4	1.0036283
40	0x3f8034c8	1.0016108
41	0x3f8263f9	1.0186759
42	0x3f8157b3	1.0104889
43	0x3f7e2995	0.992822
44	0x3f815822	1.0105021
45	0x3f823e33	1.0175232
46	0x3f813056	1.0092876
47	0x3f8f4efd	1.119598
48	0x3f7e47ab	0.99328107
49	0x3f826365	1.0186583
50	0x3f809d4c	1.0048003
51	0x3f82db4b	1.0223173
52	0x3f7fa9d1	0.99868494
53	0x3f80e5ec	1.0070167
54	0x3f836043	1.0263752
55	0x3f80b5ba	1.0055459
56	0x3f82f86b	1.0232061
57	0x3f88a2b3	1.0674652
58	0x3f822051	1.0166112
59	0x3f821085	1.0161291
60	0x3f80deef	1.0068034
61	0x3f80aaf8	1.0052176
62	0x3f812456	1.0089214
63	0x3f80616f	1.0029734
64	0x3f80408f	1.0019702
65	0x3f7fd736	0.9993776
66	0x3f7f6317	0.99760574
67	0x3f81483c	1.0100169
68	0x3f80f694	1.007525
69	0x3f7fb36c	0.9988315
70	0x3f822413	1.0167259
71	0x3f7faebb	0.9987599
72	0x3f8031c0	1.0015182
73	0x3f7ea0b3	0.9946396
74	0x3f806ac0	1.0032578
75	0x3f8043f5	1.0020739
76	0x3f80c095	1.0058771
77	0x3f7e697b	0.993797
78	0x3f80ea8f	1.0071582
79	0x3f7ef38a	0.9959036
80	0x3f7fcb9d	0.99920064
81	0x3f806f24	1.0033917
82	0x3f7e9a1d	0.9945391
83	0x3f7dba02	0.9911195
84	0x3f803dd6	1.0018871
85	0x3f840647	1.0314416
86	0x3f80e31b	1.0069307
87	0x3fa0232d	1.2510735
88	0x3f808964	1.0041928
89	0x3f800de3	1.0004238
90	0x3f8199bc	1.0125041
91	0x3f7f2cb5	0.9967759
92	0x3f7e53c6	0.9934658
93	0x3f817399	1.0113403
94	0x3f801e77	1.0009297
95	0x3f80c455	1.0059916
96	0x3f809ee2	1.0048487
97	0x3f8203fe	1.0157468
98	0x3f8083ff	1.0040282
99	0x3f803a02	1.0017703
100	0x3f830aed	1.0237709
101	0x3f80caca	1.0061886
102	0x3f7f12f4	0.99638295
103	0x3f8131f5	1.0093371
104	0x3f80f039	1.007331
105	0x3f808a47	1.0042199
106	0x3f7fbe52	0.9989978
107	0x3f810d0a	1.0082104
108	0x3f8011ad	1.0005394
109	0x3f7ff5e0	0.9998455
110	0x3f7e43ec	0.9932239
111	0x3f8e0a0f	1.109682
112	0x3f819a38	1.0125189
113	0x3f80dec2	1.006798
114	0x3f7f28a4	0.9967139
115	0x3f80f42f	1.0074519
116	0x3f81789d	1.0114933
117	0x3f8061df	1.0029868
118	0x3f81223f	1.0088576
119	0x3f826cac	1.0189414
120	0x3f7fed02	0.9997102
121	0x3f928206	1.144593
122	0x3f7f439c	0.9971254
123	0x3f8255a6	1.0182388
124	0x3f817bde	1.0115926
125	0x3f7efd75	0.99605495
126	0x3f7e60ea	0.9936663
127	0x3f827fa4	1.0195203

convs.0.bn1.bias f4 [128]
0	0xba9bb51c	-0.0011879536
1	0x3b9d97ec	0.0048093703
2	0x38c4af7c	9.378695e-05
3	0x39341172	0.00017172637
4	0x3b28b3d0	0.0025741942
5	0x3b71cfa0	0.0036897436
6	0xbacc1ea4	-0.0015573096
7	0x3acc1621	0.001557056
8	0x3b5c0aaf	0.0033575704
9	0x386972a1	5.5658285e-05
10	0x3bbc3585	0.0057436847
11	0xbb0f5680	-0.0021871626
12	0x3a551e5e	0.000812983
13	0x3aaac409	0.0013028394
14	0xbb2077e1	-0.0024485516
15	0x3994c04d	0.00028372035
16	0x3b3270ad	0.0027227805
17	0xbaae9056	-0.0013318162
18	0xbb17953c	-0.0023129722
19	0xbb5b61d6	-0.0033475063
20	0xbb11e6c9	-0.0022262803
21	0xbca072b3	-0.019585943
22	0xbb0e4fdb	-0.0021715078
23	0xbe156543	-0.1458941
24	0xbbaea149	-0.0053292853
25	0xbb622a42	-0.003451005
26	0xbb9e9dea	-0.004840602
27	0xba193f20	-0.0005845893
28	0x3a08dbae	0.0005220723
29	0x3b3907c9	0.00282334
30	0xba93dca3	-0.0011280965
31	0xbb93313f	-0.0044919546
32	0xbabf3415	-0.0014587665
33	0xb9bb551e	-0.00035730837
34	0xba964512	-0.0011464676
35	0xbb932d49	-0.0044914824
36	0xbc49f0e5	-0.0123255
37	0xbafd74ed	-0.0019337215
38	0xbb2256b3	-0.0024770915
39	0xbb5d22f8	-0.0033742767
40	0xbbc51a8f	-0.006015129
41	0x3b8cd7fd	0.0042982087
42	0xbb188dfb	-0.0023277986
43	0x3ab50387	0.0013810255
44	0xbb0b5bb4	-0.0021264376
45	0x3b575e50	0.003286261
46	0xbb8024f9	-0.0039106575
47	0xbcc56fa1	-0.02410108
48	0x3b038825	0.0020070162
49	0xbc2d32eb	-0.010571222
50	0xbb372e02	-0.0027951007
51	0xbbef5fb5	-0.0073051103
52	0x3b22fcbf	0.0024869887
53	0xbb13bee1	-0.0022544193
54	0xb89cf3f4	-7.4840995e-05
55	0xbbcfeec4	-0.0063456018
56	0x3aee30da	0.0018172518
57	0xbda0dd02	-0.07854654
58	0xba1a1f41	-0.0005879291
59	0xbc449546	-0.01199848
60	0xbab6b182	-0.00139384
61	0x3a9cb7d0	0.0011956636
62	0xbb1ec5de	-0.0024226825
63	0xbc583f4b	-0.013198684
64	0xbb2e293c	-0.002657487
65	0x3b458069	0.0030136353
66	0x3a9ab974	0.0011804537
67	0xbb60e7b1	-0.0034317786
68	0xbb274993	-0.0025526031
69	0x38872087	6.44336e-05
70	0xbbb9a031	-0.0056648483
71	0xba094086	-0.000523575
72	0x3a4efe65	0.0007896184
73	0x3bd5ec8d	0.006528443
74	0x38f21a36	0.000115443414
75	0xb9ddbe39	-0.00042294132
76	0xbb52f478	-0.0032189172
77	0x3b081049	0.002076166
78	0xbb6d4250	-0.0036202855
79	0x3afccf30	0.0019287821
80	0xb921e6f8	-0.00015440199
81	0xba7d9898	-0.00096739223
82	0x3af9d49c	0.0019060555
83	0x3bb0d842	0.0053968737
84	0xb9f56246	-0.0004680326
85	0xbcd7e07f	-0.026352165
86	0xbb408395	-0.0029375304
87	0xbe4fe89b	-0.20303576
88	0xbb276f84	-0.0025548646
89	0xba25b3b8	-0.00063210307
90	0xbc04e4d1	-0.008111195
91	0x3a87a8e0	0.0010350011
92	0x3b9005bb	0.0043952144
93	0xbb5faa72	-0.0034128693
94	0xb9ef12a5	-0.00045599524
95	0xba9dbae4	-0.0012033847
96	0xbaefdb05	-0.0018299526
97	0xbc04d1f2	-0.0081066955
98	0xbb818791	-0.0039529284
99	0xba894ecc	-0.0010475754
100	0xbc70b5c4	-0.014691774
101	0xbae623a8	-0.0017558234
102	0xba019f80	-0.0004944727
103	0xbba4bd35	-0.005027438
104	0xbad9cb27	-0.001661633
105	0xbae97741	-0.001781203
106	0x39b0185e	0.0003358749
107	0xbb7a9d3e	-0.0038240696
108	0xb9cd05ef	-0.00039105068
109	0xba8997f0	-0.0010497551
110	0x3ae56e17	0.0017504123
111	0xbd68e9f4	-0.05686374
112	0xbb2d4920	-0.002644129
113	0xbc1e4962	-0.0096610505
114	0x3abd0286	0.0014420308
115	0xbba271fd	-0.004957436
116	0xbbc33a63	-0.005957888
117	0x3a44ba19	0.00075045374
118	0xbb2aab73	-0.0026042133
119	0xbc0e71a5	-0.008694087
120	0x3a875656	0.0010325413
121	0xbe011152	-0.12604263
122	0x3b7c3a96	0.0038487068
123	0xbc22e48f	-0.009942188
124	0xbba9fefb	-0.0051878667
125	0x39c3cadf	0.0003734445
126	0x3aebf918	0.0018003313
127	0xbc23ee95	-0.010005613

convs.0.bn1.running_mean f4 [128]
0	0x3d46b20f	0.048509654
1	0xbde04160	-0.10949969
2	0xbd5ee178	-0.054414243
3	0x3d584a05	0.052804966
4	0x3d0c1ea9	0.034208927
5	0x3c3dd8d7	0.011587343
6	0xbd59aa1e	-0.053140752
7	0xbd99652b	-0.074899994
8	0x3dfa70c2	0.12228538
9	0xbd545f6c	-0.051848814
10	0xbd89a380	-0.06720638
11	0x3d6b5d68	0.057462126
12	0xbdc92532	-0.098215476
13	0x3d08f95a	0.033440925
14	0x3cda2550	0.02662912
15	0xbd3d4d07	-0.046216037
16	0x3cf31b5d	0.029676134
17	0xbd95abda	-0.07308169
18	0xbd278ee5	-0.04090776
19	0xbd6bf87c	-0.05761002
20	0x3db369c9	0.08760411
21	0xbddcabcc	-0.10774955
22	0xbd631639	-0.055441115
23	0xbe5f7350	-0.21821332
24	0xbc9fc2f2	-0.019502137
25	0x3e18c1d6	0.14917693
26	0xbc88228e	-0.01661804
27	0x3d9e6c8a	0.07735546
28	0x3db7bdc5	0.089717425
29	0xbd64f752	-0.055899926
30	0x3d82c380	0.06384945
31	0x3e774616	0.2414783
32	0xbd8536f9	-0.06504626
33	0xbcc56973	-0.024098134
34	0xbdff6b5c	-0.12471649
35	0xbd373423	-0.044727456
36	0x3ba2ac2f	0.0049643735
37	0xbe33304b	-0.17498891
38	0xbdb765f1	-0.08954991
39	0x3d8ff7b8	0.070296705
40	0x3e0cfa6c	0.13767403
41	0xbd904383	-0.07044127
42	0x3cccfe17	0.025023503
43	0xbe19064c	-0.14943808
44	0xbda607bc	-0.08106944
45	0xbd1fcdba	-0.039014556
46	0x3dcb482e	0.099258766
47	0x3e17a0ee	0.14807484
48	0xbcd26874	-0.025684573
49	0xbd248c36	-0.040172778
50	0x3baf18d0	0.005343534
51	0x3d86a39b	0.06574174
52	0x3d8804ff	0.06641578
53	0x3cee1192	0.029061113
54	0xbd17eb0a	-0.037089385
55	0x3df46279	0.11932845
56	0xbd34186a	-0.043968596
57	0x3d49be2b	0.049253624
58	0x3daab371	0.08335007
59	0xbc921591	-0.01783255
60	0x3cd3a15d	0.02583378
61	0xbe2379c6	-0.15964422
62	0x3ccee1ee	0.025254216
63	0x3ce8616e	0.02836677
64	0x3d49d8d0	0.049279034
65	0xbdc4cdfa	-0.096095994
66	0x3b64a4e3	0.003488832
67	0x3cc1bc58	0.02364938
68	0x3dbe402c	0.092895836
69	0xbd825b19	-0.06365032
70	0x3c19cafe	0.009386776
71	0x3d93aa43	0.07210209
72	0xbdd6cf22	-0.10488726
73	0xbc4ff380	-0.012692332
74	0x3d635f24	0.055510655
75	0x3dd1ea7a	0.10249801
76	0xbd7917e2	-0.060813792
77	0xbd3ab2f8	-0.045580834
78	0xbb49c13f	-0.003078535
79	0xbde65254	-0.112461716
80	0x3d87fa52	0.06639542
81	0xbd557eb6	-0.052122794
82	0x3d14e957	0.036355343
83	0x3e1b8498	0.15187299
84	0x3e07bfc6	0.1325675
85	0xbcfa59c0	-0.030560374
86	0x3ced4910	0.028965503
87	0xbddc3885	-0.10752968
88	0x3c81ad0f	0.015829591
89	0x3cbc7344	0.023004182
90	0x3dd45f9d	0.10369799
91	0xbceb21fe	-0.028702732
92	0xbe20994d	-0.1568348
93	0x3ca3b0df	0.0199818
94	0x3d82ae66	0.0638092
95	0x3e3da521	0.18520023
96	0xbd5dd688	-0.05415967
97	0x3d3a878f	0.045539435
98	0xbc44440d	-0.011979115
99	0x3e0e2741	0.13882162
100	0x3c0cbaa4	0.0085894205
101	0xbdb86300	-0.09003258
102	0xbcd1c657	-0.025607271
103	0xbc23dc0d	-0.010001195
104	0x3de7c906	0.11317639
105	0x3e35a012	0.17736843
106	0x3d1bab5e	0.038005225
107	0x3e486d7d	0.19573016
108	0x3d4794ab	0.048725765
109	0xbe135d42	-0.14391044
110	0x3d6ec4f2	0.05829329
111	0xbd84c3c3	-0.06482651
112	0xbd79676a	-0.06088964
113	0xbde22738	-0.11042637
114	0x3dca94e7	0.09891682
115	0xbd02dc1b	-0.03194819
116	0xbda8abc7	-0.08235889
117	0xbe73bdb9	-0.23802842
118	0x3dd04106	0.10168652
119	0x3e1123d4	0.14173824
120	0x3d81ed65	0.063441075
121	0xbdd3effe	-0.10348509
122	0x3cbf9a0f	0.02338889
123	0x3b0dea17	0.002165442
124	0x3df732d3	0.12070241
125	0x3d6dd7f2	0.05806727
126	0xbc9f92db	-0.019479206
127	0x3e434a2b	0.19071262

convs.0.bn1.running_var f4 [128]
0	0x3bb02925	0.0053759986
1	0x3c753f67	0.01496873
2	0x3c0a1f93	0.008430379
3	0x3bb983de	0.0056614717
4	0x3c38737f	0.011258005
5	0x3c35c342	0.011093916
6	0x3bb31cf7	0.0054660994
7	0x3c1a54ef	0.009419664
8	0x3c1d0100	0.009582758
9	0x3c11accd	0.008891297
10	0x3c11aeab	0.008891742
11	0x3c0e5fc9	0.008689829
12	0x3bb7d332	0.0056098932
13	0x3c08a158	0.008339249
14	0x3bcdcb74	0.006280357
15	0x3c0d2c3e	0.008616505
16	0x3bcc6147	0.0062371823
17	0x3bdba19a	0.006702614
18	0x3bb38683	0.0054786815
19	0x3c50b127	0.012737549
20	0x3c8caa36	0.017171007
21	0x3c2b3016	0.010448476
22	0x3c35857a	0.011079187
23	0x3d41dc7e	0.04732942
24	0x3bd9d37b	0.006647525
25	0x3bce7fc3	0.0063018515
26	0x3bbaa8f0	0.0056964085
27	0x3c4adb08	0.012381323
28	0x3c4a3dfe	0.012343882
29	0x3c257172	0.010097848
30	0x3c5d1e35	0.013495971
31	0x3c34847e	0.011017917
32	0x3bad79c9	0.005294059
33	0x3c059eb8	0.008155517
34	0x3bc43af6	0.005988474
35	0x3c164754	0.009172279
36	0x3c555c25	0.013022457
37	0x3bb54f39	0.0055331257
38	0x3c40ead1	0.011774735
39	0x3bc52fa8	0.006017644
40	0x3befdf57	0.0073203254
41	0x3c1e19e2	0.009649726
42	0x3baafa63	0.0052178367
43	0x3bfa3c26	0.007636565
44	0x3c123730	0.008924291
45	0x3c02342b	0.007947008
46	0x3bdc2457	0.0067181992
47	0x3c9a9a01	0.018872263
48	0x3c1349ee	0.008989794
49	0x3c4e7f59	0.012603604
50	0x3c22545e	0.00990781
51	0x3c2caeeb	0.010539751
52	0x3c35fe4f	0.011107995
53	0x3beb5c1c	0.007182611
54	0x3c4fff7d	0.0126951905
55	0x3c1c0dd6	0.009524783
56	0x3c28bc7f	0.010298847
57	0x3ca2089c	0.019779496
58	0x3c35a520	0.011086732
59	0x3c050ea1	0.008121164
60	0x3bbdd3ed	0.005793086
61	0x3c336c13	0.01095106
62	0x3c28c022	0.010299714
63	0x3c162b64	0.009165619
64	0x3c46b13d	0.012127218
65	0x3c3a90ec	0.011387091
66	0x3c4b01df	0.012390583
67	0x3c79c31e	0.0152442735
68	0x3c205e09	0.009788045
69	0x3c392a02	0.011301519
70	0x3beda7f2	0.0072526867
71	0x3c3f8931	0.011690424
72	0x3c324bad	0.0108823
73	0x3c55d747	0.013051814
74	0x3c1b1874	0.009466279
75	0x3c6c4f71	0.014423237
76	0x3c4d07b3	0.012514043
77	0x3c113e50	0.008864954
78	0x3be176ac	0.006880602
79	0x3c3ae7ca	0.011407802
80	0x3c1c3209	0.009533414
81	0x3c0a9492	0.0084582735
82	0x3c50b79b	0.012739087
83	0x3c6de34f	0.014519527
84	0x3cccb322	0.02498776
85	0x3c847df3	0.016173339
86	0x3c384d71	0.011248932
87	0x3d638d65	0.055554766
88	0x3c051da0	0.008124739
89	0x3c3e2d2e	0.011607451
90	0x3c0589d7	0.008150539
91	0x3c58e36b	0.013237814
92	0x3c5401ed	0.012939912
93	0x3c4e3c03	0.01258755
94	0x3c96e5b6	0.018420082
95	0x3c2d7826	0.010587728
96	0x3c27c9ec	0.010241013
97	0x3c777b50	0.015105084
98	0x3c05de0d	0.008170617
99	0x3c4e972b	0.012609283
100	0x3c906cae	0.017629948
101	0x3bfcd130	0.007715367
102	0x3c272b18	0.010203145
103	0x3bca911f	0.0061818506
104	0x3c868c56	0.01642434
105	0x3cb641ea	0.022248227
106	0x3c28c9b4	0.010301996
107	0x3c54e85b	0.012994851
108	0x3c686cf2	0.014186131
109	0x3c8f7dc8	0.017516032
110	0x3c0291d1	0.007969336
111	0x3c84f7b5	0.016231397
112	0x3c580ce5	0.013186668
113	0x3c2c01ee	0.010498507
114	0x3c64f21b	0.013973738
115	0x3c28b13f	0.010296165
116	0x3c967c49	0.01836981
117	0x3c8757fe	0.01652145
118	0x3c8b1af3	0.016980624
119	0x3c1a22cb	0.009407709
120	0x3c06b495	0.008221765
121	0x3c8ab1e0	0.01693052
122	0x3c2c0197	0.010498426
123	0x3c3d2f97	0.011546991
124	0x3bb5fef0	0.0055540726
125	0x3c216d6c	0.009852748
126	0x3c8b35e6	0.016993474
127	0x3c740e79	0.014896029

convs.0.bn2.weight f4 [64]
0	0x3f7ca4eb	0.98689145
1	0x3f7fd19b	0.9992921
2	0x3f7decf4	0.99189687
3	0x3f82b6aa	1.0211995
4	0x3f7ec899	0.9952484
5	0x3f7cb44d	0.9871262
6	0x3f7c34f2	0.9851829
7	0x3f8223e8	1.0167208
8	0x3f7ecd51	0.9953204
9	0x3f7bb958	0.9832969
10	0x3f7f07d4	0.9962132
11	0x3f7c460e	0.98544395
12	0x3f7ed559	0.9954429
13	0x3f7211f9	0.94558674
14	0x3f814dbf	1.0101851
15	0x3f795d51	0.97408015
16	0x3f7e52d5	0.9934514
17	0x3f80b5b6	1.0055454
18	0x3f7983a8	0.97466516
19	0x3f809fc8	1.0048761
20	0x3f823cc5	1.0174795
21	0x3f814671	1.0099622
22	0x3f803da7	1.0018815
23	0x3f92c0de	1.1465108
24	0x3f818126	1.0117538
25	0x3f7f90bf	0.9983024
26	0x3f803b8c	1.0018172
27	0x3f8144cb	1.0099119
28	0x3f7e0373	0.99224013
29	0x3f7cbfb0	0.9872999
30	0x3f82767e	1.0192411
31	0x3f828d1a	1.0199311
32	0x3f7e6eb5	0.99387676
33	0x3f7b55a8	0.98177576
34	0x3f7bbac6	0.9833187
35	0x3f793943	0.97353
36	0x3f81da6c	1.0144782
37	0x3f7fb5f3	0.9988701
38	0x3f7847fd	0.96984845
39	0x3f7eced8	0.9953437
40	0x3f7e9b70	0.9945593
41	0x3f81b09a	1.013202
42	0x3f80b078	1.0053854
43	0x3f7a138f	0.97686094
44	0x3f802641	1.0011674
45	0x3f8207fb	1.0158685
46	0x3f7db618	0.9910598
47	0x3f8d6198	1.1045408
48	0x3f814c1b	1.010135
49	0x3f79d6e7	0.9759354
50	0x3f7b8cd5	0.9826177
51	0x3f82bf36	1.0214603
52	0x3f7fcfec	0.9992664
53	0x3f7a57e8	0.97790384
54	0x3f7ca9d9	0.98696667
55	0x3f84b056	1.0366313
56	0x3f7f6df7	0.9977717
57	0x3f8b780b	1.0896009
58	0x3f8063fa	1.003051
59	0x3f82296b	1.016889
60	0x3f823927	1.0173692
61	0x3f80479e	1.0021856
62	0x3f7b3494	0.981271
63	0x3f854663	1.0412105

convs.0.bn2.bias f4 [64]
0	0xbcffd537	-0.031229598
1	0xbc8e4106	-0.01736499
2	0xbbc17d83	-0.0059048547
3	0x3b3c3241	0.0028716477
4	0xbbeecbd1	-0.0072874804
5	0xbac57705	-0.0015065378
6	0xbc4560c0	-0.012046993
7	0x3c2d5073	0.010578263
8	0xbb35e2a4	-0.0027753497
9	0xbc24bd32	-0.010054873
10	0x3b2d23b5	0.0026418988
11	0x3c8288df	0.015934406
12	0xbc247530	-0.010037705
13	0xbc4f323a	-0.012646252
14	0xbb494ea9	-0.003071705
15	0xbb5f65f7	-0.0034087875
16	0xba44540a	-0.00074893294
17	0xbbd90b11	-0.0066236337
18	0xbc6d66ae	-0.014489813
19	0xbb343beb	-0.0027501534
20	0x3ccb0d9d	0.024786765
21	0x3c230d51	0.009951905
22	0xbbdec6f7	-0.006798621
23	0x3d8d4256	0.06897418
24	0xbbe7ae1d	-0.0070703165
25	0xbbcdab05	-0.0062764906
26	0xbc129766	-0.008947229
27	0xbb1567eb	-0.0022797536
28	0xbbafc6c5	-0.0053642713
29	0xbbbe07ca	-0.0057992684
30	0x3c660cf4	0.014041174
31	0xbb020b0b	-0.0019843008
32	0xbb9fd783	-0.004877986
33	0x3aed0ae0	0.0018084906
34	0xbc4a3e92	-0.0123440195
35	0xbc083388	-0.008313067
36	0xbc134959	-0.008989655
37	0xbae39e64	-0.001736593
38	0xbbb13ed7	-0.0054091024
39	0xbbf34f4e	-0.0074252253
40	0xbc78695a	-0.0151618365
41	0xbaa9e050	-0.0012960527
42	0xbc196397	-0.009362123
43	0xbc7eae4e	-0.015544487
44	0x39f1f7db	0.0004615177
45	0xbae36502	-0.0017348828
46	0xbbf32c58	-0.0074210577
47	0xbcdd18df	-0.026989399
48	0x3b3c4d97	0.002873277
49	0xbc3cbc83	-0.011519554
50	0xbbaa81de	-0.0052034697
51	0xbb8773da	-0.0041336836
52	0xbc160ed2	-0.009158807
53	0xbb4b3532	-0.0031007049
54	0xbb7e2a09	-0.003878238
55	0x3b1a0eb5	0.0023507301
56	0xbc496be4	-0.01229379
57	0x3c92c241	0.017914893
58	0x3bac3439	0.005255249
59	0xbbc93bab	-0.006141146
60	0xbbacced8	-0.005273681
61	0x3aeeda9e	0.0018223112
62	0x3bb65bab	0.005565127
63	0xba95ff14	-0.0011443817

convs.0.bn2.running_mean f4 [64]
0	0x409d748b	4.9204764
1	0x40afef4e	5.497962
2	0x40a02d25	5.005511
3	0x4097adcb	4.739965
4	0x40a3ef97	5.122997
5	0x40b1cc71	5.556206
6	0x409f4dc0	4.978241
7	0x40aa88e5	5.3292108
8	0x40945224	4.635027
9	0x40981ac0	4.7532654
10	0x40a8db02	5.2767344
11	0x40a41f3d	5.1288133
12	0x40a2f157	5.0919604
13	0x40a257af	5.0732036
14	0x40a45bd7	5.136211
15	0x40a39ab7	5.112636
16	0x409e123b	4.9397254
17	0x40a3fc8d	5.124579
18	0x409f9239	4.9865994
19	0x409b9f4a	4.8631945
20	0x40a7f018	5.2480583
21	0x40a14b2f	5.0404277
22	0x409a9ff4	4.8320255
23	0x4087a990	4.2394485
24	0x409676a8	4.7019844
25	0x40aab784	5.334902
26	0x40ae2216	5.441661
27	0x40a6b5d4	5.209696
28	0x4093e52c	4.621725
29	0x409e60bb	4.949308
30	0x40a73efd	5.226439
31	0x409e5362	4.9476786
32	0x40939f3b	4.6131873
33	0x40a7a3f7	5.2387652
34	0x40a9e613	5.309335
35	0x40af4414	5.4770603
36	0x409e2ef0	4.9432297
37	0x409ff756	4.9989424
38	0x40a57cc2	5.171479
39	0x40963b90	4.694771
40	0x409fb8be	4.9913015
41	0x40a7567d	5.2293077
42	0x409dbeae	4.9295263
43	0x4095c859	4.6807065
44	0x40b154ae	5.541587
45	0x40a6f402	5.217286
46	0x40aae640	5.3406067
47	0x407538a7	3.8315828
48	0x40a73add	5.2259355
49	0x40a1ae5e	5.052535
50	0x40a5dbf7	5.183101
51	0x408ecf5d	4.462813
52	0x409cc6af	4.8992534
53	0x409d8b8d	4.923285
54	0x40a1f980	5.0617065
55	0x40a8a193	5.2697234
56	0x4096cd28	4.7125435
57	0x40838ba9	4.1107984
58	0x40a10ac5	5.0325646
59	0x40a6b172	5.209161
60	0x409acf50	4.8378067
61	0x40a97188	5.295109
62	0x40a7dfe7	5.246082
63	0x40b4c420	5.648941

convs.0.bn2.running_var f4 [64]
0	0x40cd6942	6.419099
1	0x4091c2d2	4.555032
2	0x410b5b21	8.709748
3	0x40ca7895	6.3272195
4	0x41814776	16.159893
5	0x4195fe74	18.749245
6	0x40d0f0ba	6.5293856
7	0x416cc474	14.797962
8	0x40c8afe4	6.271471
9	0x415362cd	13.211621
10	0x411cc296	9.797506
11	0x408f435a	4.4769716
12	0x410d1ac5	8.819036
13	0x40e19444	7.049349
14	0x41029a02	8.1626
15	0x41205fcc	10.023388
16	0x40e5f855	7.186564
17	0x41ae2ad2	21.770908
18	0x4129e6de	10.618864
19	0x4103b51f	8.231719
20	0x409d8b09	4.923222
21	0x406d261d	3.7054513
22	0x40ab4b23	5.352922
23	0x3fed1160	1.8520927
24	0x41484ec6	12.519232
25	0x4101af6e	8.1053295
26	0x410743c3	8.454043
27	0x406448de	3.5669475
28	0x4115ece6	9.370337
29	0x40e04f82	7.0097055
30	0x4090046d	4.5005403
31	0x40b57974	5.671076
32	0x40ef8d70	7.4860153
33	0x40b22d50	5.5680313
34	0x40fcb164	7.896654
35	0x41182de4	9.511204
36	0x40644029	3.566416
37	0x4144a0fc	12.289303
38	0x4105f6f6	8.372793
39	0x4082ed46	4.091464
40	0x40a2a7b7	5.082973
41	0x40ea51a9	7.3224683
42	0x4107103d	8.441464
43	0x40aee1ae	5.465049
44	0x413c06c6	11.751654
45	0x416b4f43	14.706851
46	0x41df9f02	27.95264
47	0x3fdf86b6	1.7462986
48	0x414ce931	12.8069315
49	0x40a8ce47	5.2751803
50	0x40bf948e	5.986884
51	0x406b9fac	3.6816206
52	0x416f06c2	14.93915
53	0x408c8bd4	4.392069
54	0x40c39dda	6.113019
55	0x40ee1afe	7.440795
56	0x40ab9233	5.3615966
57	0x3fd40f09	1.6567088
58	0x40d675c6	6.7018766
59	0x4096291e	4.692519
60	0x411b09bc	9.689877
61	0x418b9bf0	17.451141
62	0x4146e1dc	12.430141
63	0x41429e40	12.163635

convs.1.fc_full.weight f4 [128, 169]
0	0xbb1c07f5	-0.0023808454
1	0xbd3014ba	-0.042988516
2	0x3da6127d	0.08108995
3	0x3c4b0065	0.012390231
4	0x3c4db24a	0.012554714
5	0xbd17102e	-0.036880665
6	0x3d29236c	0.041293547
7	0x3d66aded	0.056318212
8	0xbd895af1	-0.06706799
9	0xbc6333e1	-0.013867349
10	0x3ca9ea66	0.020741653
11	0xbcca68a8	-0.024708107
12	0x3d9542ea	0.072881535
13	0xbd0e5aac	-0.03475444
14	0x3d853dca	0.06505926
15	0xbd154725	-0.0364448
16	0x3d33bad2	0.043879338
17	0xbcc43f75	-0.02395604
18	0x3d77a6e1	0.060461883
19	0xbd43fe0c	-0.0478497
20	0x3e0b1008	0.13580334
21	0x3caf09e0	0.021367013
22	0x3cab51e3	0.02091307
23	0xbe35f4a9	-0.17769112
24	0x3d94871f	0.07252335
25	0x3d261019	0.040542696
26	0x3b8408da	0.0040293755
27	0x3d335040	0.043777704
28	0x3c86fb37	0.01647721
29	0x3d36a65e	0.044592254
30	0x3d9f65e2	0.077831045
31	0xbc752c6d	-0.014964205
32	0x3cc8af57	0.024497671
33	0x3cbebd86	0.023283731
34	0xbd1ff95c	-0.039056167
35	0x3d36b8e3	0.044609915
36	0x3ccff5b8	0.025385723
37	0xbd1a47f7	-0.037666287
38	0x3d5ee73f	0.054419752
39	0x3c2e340b	0.010632525
40	0x3d0a1cf8	0.033719033
41	0x3db01a17	0.08598726
42	0x3d3bb5aa	0.045827545
43	0xbc006e54	-0.007838804
44	0x3d32e0fc	0.043671593
45	0xbda1efd2	-0.0790707
46	0xbd2de62d	-0.04245584
47	0x3dcf8607	0.101329856
48	0x3d931f6a	0.07183726
49	0xbd155e97	-0.03646716
50	0xbd4a46cc	-0.049383923
51	0xbd5ecdd8	-0.054395527
52	0xbd9dbaee	-0.0770167
53	0x3cff5bad	0.031171644
54	0x3ba1ac40	0.004933864
55	0x3d59976d	0.053122927
56	0x3dd48401	0.1037674
57	0xbdc7135a	-0.09720488
58	0x3c9cb105	0.019127378
59	0x3de4212b	0.11139139
60	0x3d1a29dc	0.037637576
61	0xbd8f4b66	-0.06996803
62	0xbcd028fe	-0.025410172
63	0xbd9909fa	-0.07472606
64	0x3d677cc3	0.056515466
65	0x3cfc8440	0.03082478
66	0xbd2846b8	-0.041083068
67	0xbcfe7afb	-0.031064501
68	0xbcf27949	-0.029598849
69	0xbc1c558d	-0.009541881
70	0x3cf13896	0.029445928
71	0x3c285425	0.010273968
72	0x3cb461c4	0.022019275
73	0x3d9de414	0.07709518
74	0x3d9f37da	0.07774325
75	0xbc8c5b98	-0.017133519
76	0x3d1796fb	0.03700922
77	0xbbfeacd6	-0.0077720685
78	0xbc988d3e	-0.018622037
79	0x3cc61b4d	0.02418294
80	0x3d9212de	0.07132505
81	0xbd653e70	-0.05596775
82	0x3d0f6b3e	0.035014383
83	0x3a51f8c2	0.0008009785
84	0x3d2c4c96	0.042065226
85	0x3d17ae60	0.03703153
86	0xb5d66428	-1.5973392e-06
87	0x3cfc2dc5	0.030783543
88	0x3d7c3084	0.061569706
89	0xbd59ee93	-0.053206038
90	0xbd1c5e3b	-0.038175803
91	0xbd525f19	-0.051360223
92	0xbc16c441	-0.009202064
93	0x3c7e4215	0.015518685
94	0x3dbabd4c	0.09118137
95	0x3cc6eb4c	0.02428212
96	0x3bce679e	0.006298973
97	0xbbe9eda9	-0.007138927
98	0x389b2e75	7.399629e-05
99	0x3d88cbec	0.0667952
100	0xbd683bd1	-0.05669767
101	0x3cf73ddf	0.03018087
102	0x3ceffaa7	0.029294325
103	0x3c927da1	0.01788217
104	0x3d8d49ab	0.06898817
105	0xbd2fddab	-0.04293601
106	0x3ce38840	0.02777493
107	0xbd141e10	-0.036161482
108	0xbd3c605a	-0.045990326
109	0xbd01d963	-0.031701457
110	0x3cafaf67	0.021445943
111	0xbddba72b	-0.10725244
112	0x3c67af72	0.0141409505
113	0xbd375091	-0.04475457
114	0xbd345905	-0.04403021
115	0x3d034b84	0.03205444
116	0x3b60d25e	0.0034305076
117	0xbd7837bb	-0.060600024
118	0xbc55d754	-0.0130518265
119	0x3cc5d7b8	0.024150714
120	0x3bc8c5ee	0.0061271107
121	0xbda3b824	-0.079941064
122	0xbcbacf17	-0.022803826
123	0xbd913781	-0.07090665
124	0xbd264835	-0.040596206
125	0xbd83e36a	-0.0643986
126	0x3bc1440a	0.0058980035
127	0x3d0e69b7	0.034768786
128	0x3cb292e4	0.021798559
129	0x3d14a0ab	0.036286037
130	0xbd4b838c	-0.049686
131	0xbcbfa6c8	-0.023394957
132	0x3cdfbe86	0.027312528
133	0xbd590e76	-0.052992307
134	0x3cc304cb	0.023805996
135	0x3d26fd16	0.040768705
136	0xbd117546	-0.03551223
137	0xbd8e5216	-0.069492504
138	0x3d28f130	0.04124564
139	0xbd277281	-0.040880684
140	0xbd93dee6	-0.07220249
141	0xbcc497fa	-0.02399825
142	0x3d27dced	0.040982176
143	0x3d9ae3c5	0.07562975
144	0xbaae0dca	-0.0013279256
145	0x3c123036	0.008922627
146	0xbb87a5c5	-0.0041396343
147	0x3d89dbc4	0.0673137
148	0x3d6e58b2	0.058190055
149	0xbd5790cc	-0.052628323
150	0xbd2919ce	-0.041284375
151	0x3c63a9a9	0.013895431
152	0xbc277c01	-0.010222436
153	0x3c4b690d	0.012415183
154	0x3d190dc2	0.037366636
155	0xbd99ebc3	-0.07515671
156	0x3c683ae3	0.014174196
157	0x3d4ad4e8	0.04951945
158	0xbd654e3d	-0.055982817
159	0x3d96b765	0.073591985
160	0xbc758365	-0.01498494
161	0xbc845d5f	-0.016157804
162	0x3d744a78	0.05964133
163	0xbd07d129	-0.033158455
164	0xbb42cdbc	-0.0029724678
165	0x3a5d8082	0.000844963
166	0xbd433229	-0.04765526
167	0xbcc13334	-0.023583986
168	0xbd5776ca	-0.05260352
169	0xbd89d70d	-0.06730471
170	0x3c00cd67	0.007861472
171	0x3d86dc58	0.06584996
172	0xbd946ec3	-0.072476886
173	0x3d5de80f	0.054176386
174	0x3caff6ca	0.021479983
175	0xbd0de27e	-0.034639828
176	0x3d3602f3	0.044436406
177	0x3c0ccc19	0.008593583
178	0xbc95fed0	-0.01830998
179	0xbd784d2f	-0.060620483
180	0xbca8c471	-0.020601483
181	0xbd748a69	-0.05970231
182	0x3d7f3508	0.062306434
183	0x3b6958aa	0.0035605826
184	0x3cec661e	0.028857287
185	0x3d609dd5	0.05483802
186	0x3d994cda	0.074853614
187	0xbce8c7bd	-0.028415555
188	0x3d03736c	0.032092497
189	0x3bec6d58	0.007215183
190	0xbd6364d3	-0.055516075
191	0xbd204149	-0.03912476
192	0xbd72929c	-0.05922185
193	0xbd856a23	-0.065143846
194	0xbd558f06	-0.05213835
195	0x3d780549	0.060551915
196	0x3caccfb5	0.021095136
197	0xbb7c20fa	-0.0038471804
198	0xbd391170	-0.045182645
199	0xbd835989	-0.06413562
200	0xbd21e5cd	-0.039525796
201	0x3ca5b186	0.020226251
202	0xbd798257	-0.060915317
203	0xbd9795f8	-0.07401651
204	0xbd18a0dc	-0.037262782
205	0x3d42a94d	0.04752474
206	0x3c979a85	0.018506298
207	0x3d0da547	0.03458145
208	0x3cb07b4b	0.021543166
209	0xbb84b686	-0.004050079
210	0x3d42454c	0.047429368
211	0xbda2797f	-0.0793333
212	0x3ccb4260	0.024811924
213	0x3d9aa931	0.07551802
214	0xbb1fb0af	-0.0024366786
215	0x3d216a13	0.0394078
216	0xbc340f76	-0.010990014
217	0x3cc31f81	0.023818733
218	0xbd915557	-0.070963554
219	0xbd2dd7d5	-0.04244216
220	0x3aefcac8	0.0018294686
221	0x3cca8573	0.024721837
222	0x3cb2822c	0.021790586
223	0x3baa03f7	0.005188461
224	0xbca4fe11	-0.02014068
225	0x3b4a2471	0.0030844475
226	0xbd04de5b	-0.032438617
227	0xbd146383	-0.036227714
228	0xbd3df046	-0.04637172
229	0xb982b242	-0.00024928345
230	0x3d32bdf4	0.043638185
231	0x3c244e12	0.010028379
232	0x3d04420f	0.03228956
233	0x3b63f377	0.0034782568
234	0x3d332617	0.043737497
235	0x3da0c491	0.07849992
236	0x3cf03cd5	0.029325882
237	0xbd76e451	-0.060276333
238	0xbd23aaaa	-0.03995768
239	0x3d278d29	0.040906105
240	0xbcda3faa	-0.026641686
241	0x3d02e16a	0.031953253
242	0x3d451a72	0.048120923
243	0xbcee9456	-0.029123466
244	0xbda58342	-0.08081676
245	0xbce5de54	-0.028060116
246	0x3c4deab7	0.012568167
247	0x3d9b8e96	0.075955555
248	0xbd49a11c	-0.04922591
249	0xbd81c684	-0.06336692
250	0x3c9d1436	0.019174676
251	0x3d91357c	0.070902795
252	0xbd7d70c0	-0.061875105
253	0xbcd317de	-0.025768217
254	0x3d755d78	0.059903592
255	0xbd2ce824	-0.042213574

convs.1.fc_full.bias f4 [128]
0	0x3d277819	0.04088602
1	0xbd8d9875	-0.069138445
2	0x3be39143	0.006944807
3	0x3d2f7bb0	0.042842567
4	0xbd8eede2	-0.06978966
5	0xbd28fae0	-0.041254878
6	0xbcb8e736	-0.022571187
7	0x3ce67944	0.028133996
8	0xbcd2b090	-0.025718957
9	0x3d6eea0f	0.058328684
10	0xbc830562	-0.015993778
11	0x3d894c11	0.06703962
12	0x3d884f2b	0.06655725
13	0x3cee2f7a	0.029075373
14	0xbc03dfa0	-0.008048922
15	0xbc2415d5	-0.010014971
16	0xbcf69a8e	-0.030102994
17	0xbb08f7bb	-0.0020899612
18	0x3cb798f0	0.022411793
19	0x3b3df4f6	0.002898512
20	0x3b8f70a3	0.004377441
21	0x3cff2170	0.031143874
22	0xbd775f63	-0.060393702
23	0x3d693dae	0.056943588
24	0xbbc5a0e2	-0.0060311416
25	0xbd13b36d	-0.036059786
26	0x3d6347c9	0.05548838
27	0xbc8ad572	-0.016947482
28	0x3d46cd62	0.048535712
29	0x3d9195cd	0.0710865
30	0xbd891b39	-0.066946454
31	0x3c910f10	0.017707378
32	0xbbc47c50	-0.0059962645
33	0xbcb80731	-0.022464367
34	0xbcd34302	-0.025788788
35	0xbd9af8ba	-0.07566972
36	0xbc912e68	-0.017722324
37	0xbc6a87b0	-0.014314577
38	0x3d6badda	0.057538845
39	0xbd47bba6	-0.04876294
40	0xbd9b1e20	-0.07574105
41	0x3d500ae1	0.050791625
42	0xbd1090b9	-0.03529427
43	0xbd7c2b70	-0.061564863
44	0xbcdd9329	-0.02704771
45	0x3cd7b423	0.026331013
46	0x3d6eaba2	0.05826915
47	0xbc36471b	-0.011125351
48	0x3d62f1f0	0.05540651
49	0xbcc1637a	-0.023607004
50	0xbd5e88d2	-0.0543297
51	0xbd34316d	-0.04399245
52	0x3c266910	0.010156885
53	0xbb3dd4b1	-0.0028965885
54	0xbd01e312	-0.03171069
55	0x3b07a22a	0.0020696023
56	0x3cf262c7	0.029588116
57	0x3d84df61	0.06487919
58	0xbc07a5d3	-0.008279282
59	0x3d53867e	0.051641934
60	0xbd43fc74	-0.04784818
61	0xbd6630bb	-0.056198817
62	0x3d94fc05	0.072746314
63	0x3d367eaa	0.04455439
64	0x3d42a26c	0.04751818
65	0x3d356a00	0.044290543
66	0xba8e0e49	-0.0010837998
67	0xbd12d6d2	-0.0358494
68	0x39c079f3	0.00036711953
69	0xbcfefb86	-0.031125795
70	0xbcce5335	-0.02518616
71	0x3c414ad9	0.01179763
72	0x3c155181	0.00911367
73	0x3d7e7bb4	0.06212969
74	0x3ce56ca5	0.028005907
75	0xbd046c01	-0.032329563
76	0xbd05533e	-0.03255009
77	0x3b9d8fb9	0.004808393
78	0x3cb62c14	0.022237815
79	0xbcf93bb0	-0.030423969
80	0x3c5aad2b	0.0133469505
81	0xbbc6afaa	-0.0060634213
82	0x3d52108f	0.051285323
83	0xbce9fd87	-0.028563274
84	0xbc5b9e44	-0.013404433
85	0xbd887d6b	-0.066645466
86	0xbd4ed48c	-0.05049567
87	0xbd66c2ad	-0.056338
88	0x3cb97a7b	0.022641411
89	0xbd0b7a19	-0.03405199
90	0xbd10aa47	-0.03531864
91	0x3d84c627	0.06483107
92	0x3d1c5cb8	0.03817436
93	0x3d5de0e2	0.054169543
94	0x3d6a43d8	0.057193607
95	0xbd6a7ccd	-0.057247926
96	0xbbfa6abe	-0.007642119
97	0xbc583a73	-0.013197529
98	0x3d0fbc03	0.03509141
99	0xbd8bad30	-0.06820142
100	0xbd79f7a8	-0.0610272
101	0xbd99d1b3	-0.075107
102	0x3d9b30f7	0.07577699
103	0xbb9525f7	-0.004551645
104	0x3d8a368e	0.06748687
105	0x3d921e5d	0.071346976
106	0xbc86971f	-0.016429482
107	0xbce586be	-0.028018352
108	0xbd4dc13f	-0.050233122
109	0xbc82005a	-0.015869308
110	0xbd82c7ae	-0.06385742
111	0xbc2434bd	-0.010022339
112	0xbcd41a2a	-0.025891382
113	0x3c9a4eef	0.018836467
114	0x3d6c3942	0.057671793
115	0x3be71015	0.0070514777
116	0xbcb0ea09	-0.021595972
117	0xbd6d46b0	-0.05792874
118	0x3c652be9	0.01398752
119	0x3ca72e58	0.02040784
120	0xbd50c95e	-0.05097329
121	0x3d53eec2	0.05174137
122	0x3d2b57b6	0.041831695
123	0x3d245ead	0.040129352
124	0xbcb8570c	-0.022502445
125	0xbce3c2c3	-0.02780283
126	0xbc233a70	-0.009962663
127	0xbc5be854	-0.013422091
