pre-trained/model_best.pth.tar (torch, 672214 bytes, 58 tensors)

embedding.weight f4 [64, 92]
00000000: 6ae8 fd3c 164a 66bd 29c2 18bc f1a7 aabd
00000010: 70c0 523d ffed 703d 45bb 1bbd 9362 613d
00000020: 53ce 573c f1ad 2a3d e0d0 6ebd bc2a 8abd
00000030: 1071 c4bb 48ae afbd fe84 e5bc 9aed e7bd
00000040: 8345 45bd 35ec f93d e2f2 8cbd e95a b13c
00000050: e577 57bc a6cd 81bd e85b 9e3d 7721 913d
00000060: 28e4 ccbc a29c 8d3b 2e16 b33d f39a 6abc
00000070: 3f0a 36bd 46fa d7bd b695 6ebc f206 433d
00000080: b43d b13d e74f dd3c cea7 3b3c a7b2 a2bd
00000090: acbd 4a3d df40 a13b 748f d6ba 4ef8 cf3c
000000a0: 40b3 88bd 772f a23d 5c6f edbd a926 b3bd
000000b0: 1640 8b3d 405e 4ebd 1f14 bf3c e269 edbc
000000c0: aa0b 51bd 563f d8bd ef20 a03c 81d9 8d3d
000000d0: e732 383d 9ae3 003d 8221 a63d e0f5 0fbd
000000e0: 53a5 cc38 7263 fa3a b6ba 393d 8f4e 513d
000000f0: 22b0 463d dd05 87bd feac b03d 932e 083c
00000100: bb93 96bd 13a8 993d 62c0 2e3d 5565 903d
00000110: 7bfe 8a3d 215d b7bd a803 9b3d 149f d83c
00000120: 770a bcbd 3055 8b3c 7db0 b7bd 673e b73d
00000130: 0088 6c3c 26bb 4ebd 6a97 183c 97f7 6d3d
00000140: f15c 8ebd b7fd e53b 4b76 c93c 8d17 ce3c
00000150: 5b18 1bbd 30c8 133d 0c0e cebc a9d9 44bc
00000160: 5eb9 3fbc 8a1f 8abd f9ec 853d 857a cabc
00000170: 98de a3bc 6456 0dbd a2a6 353d c6d0 933d
00000180: 461b 83bd 6467 93bd abf9 04bd 944c b7bb
00000190: 5e18 8a3c 1347 6bbd 3326 54bd 160a 943d
000001a0: 1d85 88bd 5b28 05bd 2a14 65bd 23f9 0dbd
000001b0: f27f d6bc 30b8 07bd 880f 83bd 9abe 4cbc
000001c0: 7a57 93bb a3e0 7abd 6f08 8e3d c995 5fbb
000001d0: a1c2 81bd 32df ad3d 9444 c8bc 8e27 ce3d
000001e0: e44a 1e3d 4861 5f3d 46da 11bd 68f5 b8bc
000001f0: a12c 41bc 662c b0bd 60b5 9abc 1516 d03c
00000200: 6724 7c3d 8a4b 8abd 0de4 9cbd ca49 a2bb
00000210: c9ac 27bd 5c0d b4bd ce01 dfbc 2024 66bc
00000220: 2dd1 a63b 799a 83bd de96 9c3d 2de6 843d
00000230: d599 9cbd d458 45bd e669 e7bc 3716 18ba
00000240: 40c7 233d 0f47 aa3d dbe2 5f3d bed7 3d3d
00000250: cec9 203d d978 2dbd 02ab 45bd feec 823c
00000260: 0930 9fbd aeb1 bcbd c4b1 723b 3bef 683d
00000270: b05d 8dbd 7880 4bba aeae 8fbd 9d00 c13d
00000280: c5c7 ec3c cdc7 9d3d 27fb 79bd f4af d03c
00000290: fe20 2abd 2edd b3bd 4f38 22bd 28be acbc
000002a0: 655f b33d 3b67 efbc 0159 f2bc e0fc b93d
000002b0: 8506 b2bd 306c 8c3d 308b 19bd 5247 ca3d
000002c0: e500 5bbb 8f3e a9bd 0836 59bd 9e71 f4bc
000002d0: 67e8 d0bd 15ec 3d3d 73e7 2b3d 15ca 64bd
000002e0: ddc7 aebd bca4 84bd ef2a 6f3c 019c 0dbd
000002f0: 3861 c53d 6ab4 8fbd f980 1bbd cedd a93d
00000300: b67c 8dbc b15d e7bc 1324 0bbe c063 5abd
00000310: bb6a d4bd 4ec4 cb3d 4d30 b43d 6a1a e93c
00000320: 2cf7 31bd 51d0 c4bd f61b f7bc c5fd 783c
00000330: 7d7a c6bd c118 9c3c 4573 0e3b dc2e 843c
00000340: 0457 2c3c 2ff4 8fbc f034 b73d ce9c 953d
00000350: a082 15bd 2315 b03c 0771 68bd e5d8 69bd
00000360: f9f5 ad3d 054f 9dbd c5e4 9e3d 7e4e d43d
00000370: 83fa 45bd 8721 8b3d 5b3a dabd baac 2f3d
00000380: a85c 89bc 447e a53c 541c 8dbd cc72 ab3d
00000390: f50e 66bd c0be fd3c 3926 89bb 2ad1 d33d
000003a0: 0f16 763d 1e10 b5bc 08b5 86bd 8528 7bbd
000003b0: f38b b0bd 7d7b 8abd a7ca efbd dd51 f4bd
000003c0: d7db a0bb a488 ab3c cc13 0c3e 1a3c 8bbd
000003d0: a107 89bd 8998 c43d b180 acbd a1f7 ab3b
000003e0: ee0a e83c 318c 13bb 3bc2 b43d 5e68 753d
000003f0: 74db 3abc 1686 97bd 2cb6 263d e446 e73c
0.030994613 -0.056222998 -0.009323635 -0.083328135 0.051453054 0.05882072 -0.03802039 0.05502565
0.01317175 0.04166979 -0.058304667 -0.06746432 -0.0059949234 -0.085781634 -0.028017517 -0.11324616
-0.048161995 0.12203256 -0.06882264 0.021649795 -0.013151144 -0.063380525 0.077323735 0.07086461
-0.025011137 0.0043216506 0.08744465 -0.014319169 -0.044443365 -0.10545783 -0.014562061 0.047614045
0.08654347 0.02701564 0.011453582 -0.079442315 0.04949729 0.0049210633 -0.0016369657 0.025386956
-0.06674814 0.079192095 -0.11593506 -0.08747608 0.06799333 -0.050382853 0.023325024 -0.028981153
-0.051036514 -0.10558955 0.019546954 0.06926251 0.04497042 0.031467058 0.0811186 -0.035146594
9.758272e-05 0.0019103123 0.045344077 0.05110031 0.048507817 -0.06592915 0.08626746 0.008311885
-0.07352396 0.07502761 0.04266394 0.070505776 0.067868195 -0.0895331 0.07569057 0.026443042
-0.091816835 0.017008394 -0.08969209 0.08947449 0.014436722 -0.050471447 0.009313444 0.05809745
-0.06951321 0.0070187706 0.02459254 0.025157714 -0.037865024 0.036079586 -0.025153182 -0.012014785
-0.01170191 -0.06744297 0.065393396 -0.024716625 -0.020003602 -0.034506217 0.044348367 0.07217555
-0.06401686 -0.071974546 -0.032464664 -0.0055938456 0.016857322 -0.05744083 -0.051794242 0.07228486
-0.06666014 -0.03250919 -0.055927433 -0.034661423 -0.026184056 -0.03313464 -0.06399447 -0.012496615
-0.004496512 -0.061249387 0.06935202 -0.0034116379 -0.06335951 0.08489837 -0.024446763 0.10066138
0.03864564 0.054536134 -0.035608552 -0.022577956 -0.0117904255 -0.08602218 -0.018885314 0.025401155
0.061558153 -0.06752689 -0.07660685 -0.004952644 -0.040936265 -0.087916106 -0.02722254 -0.014046699
0.0050908537 -0.06425948 0.07645963 0.06489215 -0.07646529 -0.048180416 -0.028248738 -0.000580165
0.03998494 0.083143346 0.054659706 0.046348326 0.039254956 -0.042351577 -0.04825879 0.015982147
-0.07772834 -0.09213577 0.0037032226 0.056868773 -0.06902635 -0.0007762979 -0.070157394 0.09423945
0.028903851 0.077041246 -0.061030533 0.025474526 -0.04153537 -0.08782421 -0.03960448 -0.021086767
0.087584294 -0.029224029 -0.029583456 0.09081435 -0.0869265 0.06856573 -0.037486255 0.098768845
-0.0033417281 -0.08263885 -0.053030044 -0.029839333 -0.10200577 0.046367723 0.041968774 -0.055856783
-0.08534215 -0.06476733 0.0145976385 -0.034572605 0.09637684 -0.07016833 -0.037964795 0.08294259
-0.01727138 -0.028242918 -0.1358798 -0.053317785 -0.1037192 0.099495515 0.08798275 0.028454978
-0.043448612 -0.09610046 -0.0301647 0.015197222 -0.096913315 0.019054772 0.0021736186 0.016135626
0.010518793 -0.01757249 0.08945644 0.07305299 -0.036501527 0.021494454 -0.056748416 -0.057091612
0.08494181 -0.076810874 0.07758478 0.10366534 -0.04833461 0.06793504 -0.10655662 0.042889334
-0.016767815 0.02020181 -0.06890169 0.08371505 -0.056166608 0.030974746 -0.0041854647 0.10342629
0.06007963 -0.022102412 -0.06577498 -0.06131794 -0.08620443 -0.06761835 -0.11708575 -0.11929677
-0.0049090195 0.020939179 0.13679427 -0.06798573 -0.06690908 0.09599406 -0.084229834 0.0052480255
0.028325524 -0.002251398 0.08826109 0.059913985 -0.011404861 -0.07398622 0.040701076 0.028232045

embedding.bias f4 [64]
00000000: dc9b e6bd 6dd5 233d 60bd 59bd 4ac1 55bd
00000010: 9971 143d e016 5d3c 3dd6 4fbd b6ae 443c
00000020: b372 6abd 7a7d c9bd 300b cebd 9e24 b0bd
00000030: 8553 66bd 39ea b23d 9c29 babd bf91 66bd
00000040: d081 bd3d 8e59 a63c 0323 40bd 97d3 2a3c
00000050: 9288 f63d c815 a6bd 6608 69bd 4526 c03c
00000060: 0cd6 13bd d8b4 30bd 390b 983d 5b24 f1bc
00000070: 7e04 a83d b66a da3c 3109 bb3a 611b a6bc
00000080: e9ed 823d 78d0 903d aae3 a83d 6a34 243d
00000090: 4431 dcbc 0970 c5ba b6d9 523d c512 63bd
000000a0: 1d42 a53d 3307 473d 0412 b7bd aa5b 1dbd
000000b0: 2028 803c f4f3 be3d 3200 493b 8d86 eebd
000000c0: ca8f 253d 6962 943b 0deb aa3d 29e7 6c3d
000000d0: f6d5 8e3d 247b cdbd bd13 84bb 20ed f73c
000000e0: 64a1 48bc 9064 6abd de8b 9a3c e8e5 ecbc
000000f0: 6d7d 08bc 3536 bc3c 061f 2bbd 43b9 c7bd
-0.112601966 0.03999846 -0.053159118 -0.052186288 0.036241148 0.013494223 -0.050741423 0.012004545
-0.057238292 -0.09838386 -0.100607276 -0.08600734 -0.056231994 0.08736081 -0.090899676 -0.056291338
0.092532754 0.020306375 -0.04690839 0.0104264235 0.120377675 -0.08109623 -0.056892775 0.023455748
-0.036092803 -0.043141216 0.074240156 -0.029436281 0.08203982 0.026662212 0.0014269707 -0.020276727
0.06393034 0.07071012 0.082465485 0.04008905 -0.02687896 -0.0015063296 0.051477157 -0.055437822
0.08069251 0.04859085 -0.08938983 -0.038417496 0.015644133 0.09323874 0.0030670282 -0.11646757
0.04042033 0.004528333 0.08345614 0.05783764 0.069744036 -0.10033253 -0.0040306733 0.030264437
-0.01224551 -0.05722481 0.018865522 -0.028918222 -0.008330685 0.022975067 -0.041777633 -0.09752133

convs.0.fc_full.weight f4 [128, 169]
00000000: 5dc2 25bd 03f6 903d 2ccc 46bd 2ac7 d3bc
00000010: 9c44 74bc 4ecc 1fbd 30c7 1a3d 6adf bdbc
00000020: b5a0 aabc 3591 63bd f1b6 783d e865 a0bd
00000030: 48e0 a43d 0ece de3c b289 793d 8b0a 85bd
00000040: 247d 43bc 9e6f 8a3d ba71 d9bb e078 833b
00000050: f92f 123d e652 813d a95b 87bd 19e6 35bd
00000060: d005 733c 3675 90bd a32e 853d c696 f1bc
00000070: 0918 73bb e48a 1f3d 6d31 8b3d 8384 083d
00000080: 012c 383a c2c7 fe3c ae9a 87bc 870b 833c
00000090: 4799 963d d9c5 e73c ba5d 96bd bd7d 173d
000000a0: 805f 9ebd d746 cf3c 7127 b2bd cc50 72bd
000000b0: cfbd 083c dfa2 17bc 4f7c a2bc 9eb8 863d
000000c0: 21bc 77bd 2a32 c63c 68a4 76bd 4484 0fbd
000000d0: 8c66 82bd 8f59 20bb f197 5b3d a592 883d
000000e0: 4ad0 263c 5be8 53bd f068 943d ae26 1a3c
000000f0: 554b 6f3b 2d62 82bc 5bc5 5e3c 98aa 663d
00000100: fc9c 6bbd c52f 363d 838d 1cbd f939 3bbd
00000110: cb07 dbbb b029 46bc 0887 9e3c 412f b2bc
00000120: 8867 ec3c bf34 8e3d a38f 39bc bc45 0eb8
00000130: 1d39 b03b d2da 13bc bc67 d5ba 4ebc 0fbd
00000140: 6a5f 323c acd2 bbbc d511 7abc 8cf1 1e3c
00000150: b727 263d 2fb2 adbc f235 af3d 3cc0 b2bd
00000160: c576 88bd 08fb 49bd 9372 80bd fef0 92bc
00000170: f9cd d43c 38e5 fd3c de6b babc 9c3d 38bb
00000180: 8014 8fbc 2aeb 54bd 885e 74bd 99a2 46bd
00000190: 82f3 a0bb 565c bfbd f67b 7c3d c7bc 963c
000001a0: 7010 093d 2287 413d 46cd 09bd fe79 893d
000001b0: b18d b5bc 6fa6 7b3d d033 d73c 3dbb 073d
000001c0: 3fb6 c8bc 6d22 2b3c 943c d2bc b1e5 863d
000001d0: d31d 973c ef0e 9abc 6ced 2b3d 1d0e b33c
000001e0: 6de2 17bd 9557 3abd 55ab a23d f34f 3ebd
000001f0: c540 a03d dc46 eb3c bd13 413d e87b aebd
00000200: 0d22 55bd ac3c 953d 4f4e 41bd 164a 4c3d
00000210: a9fe 3ebd 761c cc3c 96a1 963c 1b08 b5bd
00000220: 9e49 b53c 8af3 e43c 6f0c 983d 7b31 58bc
00000230: 6e55 b0bc f5ab 86bd 84e5 58bd 11fa 4a3d
00000240: 81e1 853b a4b8 a7bc 4a6b 023d d3ce 5c3d
00000250: 586c d53b 2651 903d 87a7 80bd 52c5 1c3d
00000260: 9cfc 9e3d c7cd 9e3d d6c8 763d b423 94bd
00000270: fce3 2abc 3af3 bfbc 2597 973d 9d1f 3f3d
00000280: 63ba 87bd 838f 84bb 383a cc3c 08a0 8b3d
00000290: 88a9 0abd 8d70 473d 65fe 55bd e409 773d
000002a0: 11a5 56bd 40c6 05bd ff09 3bbd 632a a23d
000002b0: adaa 05bc bb68 ab3c d1e3 fdbc fbb8 c0bb
000002c0: 7697 3fbd 8115 a7bc 0500 503d 7734 5bbc
000002d0: 3782 8bbc 9f3b 7cbc 06a1 4b3d b418 b93c
000002e0: 875e 8c3b 5a49 bbbc 2626 a4bc 3eda d7bb
000002f0: f028 193d 55e9 16bd 2ecd 7d3d 2653 3d3d
00000300: d9f1 353d c30a a0bd 33df 6dbd 0f69 da3c
00000310: 94fe 80bd 82f0 16bd 1041 3fbc e647 d5bc
00000320: b171 e23c 3e19 eabc ee92 e0bc d4de 163c
00000330: a6c6 2fbd 39fd 33bc 5080 e13c 8ae9 de3c
00000340: f975 07bc 8c48 773d 1352 6d3c 5a75 e63b
00000350: 18ed ef3c f37f 68bd ab82 a7ba a996 9fbb
00000360: af5e 693d 7064 13bd c9c7 d23c ab6e 43bd
00000370: 5832 5fbd 1529 a5bd 66dc 8cbd d340 e5bc
00000380: ada5 e73a f462 b4bc 4b8b b73c 9621 9c3d
00000390: d2b4 cb3c 3e4d 97bb 8de2 19bc bcc7 8a3c
000003a0: 1827 813d 09a9 3a3d 3044 40bd 331a 5b3d
000003b0: 3087 acbc 7a24 40bd bf6a 6dbd 2eb5 82bc
000003c0: a61b a43c d777 073d d825 04bd 4160 2e3c
000003d0: 8085 423c aad1 ab3d a036 a53c c41b 53bd
000003e0: 9c6b 9abc de4a edbc e435 403d e6b4 11bc
000003f0: d071 5abd 5f48 a03d 5fcb ccbd 687b 80bb
-0.040468562 0.07078173 -0.048534557 -0.025851805 -0.014908936 -0.0390132 0.037787616 -0.023177821
-0.020828584 -0.055558402 0.06072134 -0.07831937 0.08050591 0.027197864 0.060922332 -0.064961515
-0.011931691 0.067595705 -0.0066358717 0.004012212 0.03569028 0.0631464 -0.0660928 -0.04440889
0.014832929 -0.07053606 0.06503036 -0.02949084 -0.0037093183 0.038950816 0.067965366 0.033329498
0.00070256 0.031101111 -0.01655325 0.015996708 0.07353454 0.028292583 -0.07342096 0.036985148
-0.07733059 0.025302334 -0.08698929 -0.059159085 0.008346035 -0.00925514 -0.019834666 0.06578182
-0.060482148 0.024193842 -0.060215384 -0.035038248 -0.063672155 -0.0024467444 0.0536117 0.06668595
0.010181496 -0.051735263 0.07246578 0.009408636 0.0036513407 -0.015915954 0.013596858 0.056315035
-0.05752276 0.04447915 -0.038220894 -0.045709584 -0.0066842786 -0.0120949 0.019351497 -0.021751048
0.028857961 0.06943654 -0.01132575 -3.3920383e-05 0.005377902 -0.009024339 -0.0016281526 -0.03509169
0.010887006 -0.022927605 -0.015263041 0.009701144 0.04056522 -0.021203129 0.08555211 -0.08728072
-0.066632785 -0.049311668 -0.06271853 -0.01793718 0.025977122 0.03099309 -0.022756513 -0.0028112894
-0.01746583 -0.051982082 -0.059660465 -0.04849491 -0.004911841 -0.093437836 0.061641656 0.018400563
0.03346294 0.047248013 -0.03364303 0.06712721 -0.02216229 0.06143802 0.026269823 0.03313755
-0.024500964 0.010445219 -0.025663652 0.06586779 0.018446838 -0.018805949 0.04197447 0.021857316
-0.03708117 -0.04549368 0.07942835 -0.046462964 0.07824854 0.028720312 0.047137965 -0.08519727
-0.052034426 0.07286963 -0.04719382 0.04987534 -0.04662958 0.024915915 0.018387597 -0.088394366
0.02212983 0.02794816 0.074242465 -0.013195391 -0.021525111 -0.06575767 -0.05295326 0.04955489
0.00408572 -0.020473786 0.0318406 0.05390818 0.0065131597 0.07046728 -0.06281953 0.038274117
0.07763025 0.07754093 0.060250126 -0.07233372 -0.010430332 -0.02343141 0.074018754 0.04666101
-0.06627347 -0.0040454282 0.024930105 0.06817633 -0.033853084 0.04869132 -0.052244563 0.060312167
-0.052403513 -0.03265977 -0.04566383 0.07918241 -0.008158368 0.020923963 -0.03099242 -0.0058814264
-0.046775304 -0.020395996 0.05078127 -0.013379208 -0.017029865 -0.015395074 0.04971411 0.022594787
0.0042837295 -0.022862125 -0.020037722 -0.006587296 0.037392557 -0.036843617 0.061963253 0.046221875
0.044420097 -0.07814553 -0.058074187 0.026661424 -0.06298557 -0.03685046 -0.011673227 -0.02603526
0.027642103 -0.02857649 -0.027413812 0.0092084 -0.042914055 -0.010985666 0.027527004 0.02721097
-0.008267873 0.06037192 0.0144849 0.0070330324 0.02928786 -0.056762647 -0.0012780031 -0.004870255
0.056975063 -0.035984457 0.02573003 -0.047712963 -0.05449137 -0.080644764 -0.06877975 -0.027985012
0.0017673277 -0.02201984 0.022405287 0.076235935 0.024866495 -0.0046173623 -0.009392393 0.016940944
0.06306285 0.04557136 -0.04694003 0.053491782 -0.021060556 -0.046909787 -0.05796313 -0.015955534
0.020032715 0.033073273 -0.032262653 0.010643066 0.011872649 0.083895996 0.020167649 -0.05154015
-0.01885014 -0.028966364 0.046926394 -0.008893227 -0.053331196 0.07826304 -0.099997275 -0.003920961

convs.0.fc_full.bias f4 [128]
00000000: b886 673d 1fd1 a7bc d87e 35bc 844e 4d3d
00000010: 9555 b7bc 6f30 113c 50b2 773c e3a6 73bc
00000020: b9dd 5d3d 28e9 423c 8cfd 82bd 8249 7a3d
00000030: dc70 5ebd eda2 ab3a 51a1 2a3d 2cbb 603c
00000040: 8079 be3c 1486 62ba 351c 99bd 913a d7bb
00000050: 9dea 6cbd d415 ea3c 5c90 03bd f03d 7bbd
00000060: f10f 0fbc 657e 253d 81fc 1cbd cf99 433b
00000070: 9624 debb 24cb 6cbd 0bdb afbc b8dc 5c3d
00000080: 17db 95bc 282c 2abd 3961 99bd 8e9b 86ba
00000090: d465 63bd 8124 88bc 410b 02bd 35f3 0dbc
000000a0: d3fb 0f3d f071 513c f944 023d 573d 71bd
000000b0: 4644 ac3b 8ff1 1ebd 59cf 823d ea25 36bd
000000c0: b3b8 4a3d a153 39bd 1f41 913c 8164 763c
000000d0: e028 6d3c 8e69 903a 7167 e7bc 97e8 6dbc
000000e0: 3f6e 28bd 188e 15bd ac8e 92bd 5bf6 2bbc
000000f0: ad39 473c 2840 c5bc f72d 163d e526 aebc
00000100: ebc7 37bb ad0d 31bd 3490 f53c 9459 8ebd
00000110: 7fa8 973d 38d3 433d ef88 243d 0343 713d
00000120: f2c0 55bd a73e 3fbd ba6e 973d 36ac 223d
00000130: 084c 39bc ad30 08bd 46f6 7d3c 09a0 00bd
00000140: 98ad 7e3d 2304 21bd a659 1abb 0fe1 683d
00000150: 4d59 71bc 3b54 e6bc 641e 95bc d05a d6bb
00000160: df33 843d 5d1a 7fbd 0429 5c3d cd24 95bd
00000170: eefe 19bd 773e 58bd 0545 513d d56d ba3b
00000180: 6423 6a3d b2fe 0ebc da81 6b3c 8503 ebbc
00000190: 379d af39 1d4d 3f3d 7c44 8b3c cb8c 3b3c
000001a0: 5030 4abd 72c3 7c3d 0533 803c dc34 2f3d
000001b0: a884 49bd d0a5 1fbd 1d7a 61bd b1d7 933c
000001c0: aa73 693d 12d9 9abd 3338 163d 57a6 8fbd
000001d0: 56e7 953b e1d8 e2bc 7328 efbc e3cb 933d
000001e0: 4571 973d acd5 4c3d fe14 e83c 5fed fbbc
000001f0: 9df8 8e3d 875c 4a3d 3cc8 83bd a456 ca3c
0.056524962 -0.020485459 -0.011077605 0.050123706 -0.022379676 0.008861645 0.015118197 -0.014871332
0.05416653 0.011896409 -0.063960165 0.06110526 -0.05430685 0.001309482 0.04165775 0.0137165
0.023251295 -0.0008641195 -0.07476083 -0.006568261 -0.057840932 0.028574862 -0.032120094 -0.061338365
-0.008731828 0.040403742 -0.038326744 0.0029846316 -0.0067792637 -0.057810917 -0.021466753 0.05392143
-0.018292947 -0.041546017 -0.07489247 -0.0010269748 -0.055517033 -0.016618969 -0.031749014 -0.008663942
0.035152268 0.0127835125 0.03180406 -0.05889639 0.0052571623 -0.038804587 0.06387205 -0.04446975
0.04949255 -0.04524577 0.017731247 0.01503861 0.014475077 0.0011017786 -0.028247567 -0.014520786
-0.041120764 -0.036512464 -0.07156119 -0.010495747 0.012159747 -0.024078444 0.03666493 -0.02125878
-0.0028042744 -0.043225933 0.029975988 -0.069506794 0.07405185 0.047808856 0.040169653 0.058901798
-0.05218596 -0.04669061 0.07394166 0.039715014 -0.011309631 -0.033249546 0.015500611 -0.03140262
0.06217727 -0.039310586 -0.002355197 0.056855258 -0.014730764 -0.028116336 -0.018202968 -0.0065415874
0.06455206 -0.062281 0.053750053 -0.0728241 -0.037596636 -0.052793946 0.051091213 0.0056893625
0.057162657 -0.008727716 0.014374221 -0.028688202 0.00033495735 0.0467044 0.01700043 0.011447142
-0.04936248 0.06170983 0.015649328 0.04277502 -0.049198776 -0.03897649 -0.055048097 0.018047186
0.05699507 -0.07560934 0.03667469 -0.07014149 0.0045746965 -0.027691307 -0.029194092 0.07216623
0.07394651 0.05000846 0.028330322 -0.030752836 0.06981013 0.049404647 -0.06434676 0.024699517

convs.0.bn1.weight f4 [128]
00000000: 4051 803f 8309 7f3f adad 803f 3df4 7f3f
00000010: c115 7f3f 323b 803f 91b6 803f f0a1 813f
00000020: 5d08 803f 20a4 813f bd26 803f f5ba 803f
00000030: 605b 813f 6b50 803f b94f 803f 6375 803f
00000040: ac29 803f 6422 813f 6baa 803f 1eab 803f
00000050: 4194 813f c55b 833f e5fe 803f bbbf 963f
00000060: 4045 813f 274e 803f 3daa 803f 37a9 803f
00000070: 85b1 813f 12c9 7e3f ed7a 823f da47 803f
00000080: 149f 803f aa07 803f 7c1a 7f3f c911 803f
00000090: 86f5 833f 5dc5 803f 2999 813f 5c78 803f
000000a0: 122d 803f 9c57 823f 2c50 813f 1a1c 7e3f
000000b0: f157 813f 4428 823f 8d31 813f 3b0e 8f3f
000000c0: 8949 7e3f ef4e 823f af92 803f 2eb8 823f
000000d0: 17a3 7f3f 69e0 803f 4560 833f c1a4 803f
000000e0: e3ed 823f e26f 883f 8e03 823f 61f2 813f
000000f0: 9dda 803f 139b 803f b117 813f ed59 803f
00000100: 443d 803f e0cf 7f3f 555a 7f3f 3740 813f
00000110: ddf6 803f e3aa 7f3f 751d 823f bfa1 7f3f
00000120: f032 803f f99f 7e3f fb62 803f 8c3e 803f
00000130: 69b3 803f 1d74 7e3f fedf 803f 6404 7f3f
00000140: edc9 7f3f 2c69 803f 6c97 7e3f 9bc1 7d3f
00000150: 1c38 803f 8f00 843f 18dd 803f f470 9f3f
00000160: 818c 803f 430d 803f 3891 813f d51f 7f3f
00000170: 0d4a 7e3f b673 813f 8518 803f 08b7 803f
00000180: 5995 803f 19fc 813f f889 803f a933 803f
00000190: 4e0f 833f a6c8 803f b615 7f3f 2e26 813f
000001a0: eee2 803f 9f91 803f 26c4 7f3f d014 813f
000001b0: 280a 803f 3afb 7f3f 3243 7e3f a0b1 8d3f
000001c0: 2c92 813f 4cd5 803f c936 7f3f 7bfc 803f
000001d0: 3875 813f 3d5f 803f f61c 813f ad5a 823f
000001e0: ece0 7f3f c7e1 913f 7d49 7f3f bb4c 823f
000001f0: 7178 813f 330b 7f3f a36c 7e3f 3668 823f
1.0024796 0.9962389 1.0053002 0.99982053 0.9964257 1.0018065 1.0055715 1.0127544
1.0002552 1.0128212 1.0011822 1.0057055 1.010601 1.0024542 1.002433 1.0035824
1.0012717 1.008862 1.0052007 1.0052221 1.0123369 1.0262381 1.0077788 1.1777261
1.0099258 1.002385 1.0051953 1.005164 1.01323 0.9952556 1.0193764 1.0021927
1.0048547 1.0002339 0.99649787 1.0005428 1.0309303 1.006023 1.0124866 1.0036731
1.0013754 1.0182986 1.0102592 0.9926163 1.0104963 1.0168538 1.0093247 1.1176218
0.99330956 1.0180339 1.0044764 1.0212457 0.9985823 1.0068485 1.0263754 1.0050279
1.0228847 1.0659144 1.0157335 1.0152093 1.0066715 1.0047325 1.0085355 1.0027443
1.0018697 0.9992657 0.9974721 1.0097722 1.0075337 0.9987013 1.016524 0.9985618
1.0015545 0.9946285 1.0030206 1.0019088 1.0054752 0.99395925 1.0068357 0.99616075
0.9991749 1.0032096 0.994498 0.99123544 1.0017123 1.031267 1.0067472 1.2456346
1.0042878 1.0004047 1.0122442 0.99657947 0.9933174 1.0113437 1.0007483 1.0055857
1.0045577 1.0155059 1.0042105 1.0015765 1.0239046 1.0061233 0.99642503 1.0089777
1.0069253 1.004444 0.99908674 1.0084476 1.00031 0.99992716 0.9932128 1.1069832
1.0122733 1.0065093 0.9969297 1.0077051 1.0113897 1.0029064 1.0086963 1.0183922
0.9995258 1.1397027 0.9972151 1.0179666 1.0114881 0.99626464 0.99384516 1.0188053

convs.0.bn1.bias f4 [128]
00000000: cbfe 9eba 030f 9a3b d4c7 5039 7793 c839
00000010: df53 253b 362c 733b 1f90 c2ba 5034 c63a
00000020: 6518 513b d040 2239 8c14 b93b 6c20 0abb
00000030: d870 7d3a b3bd af3a d4bd 1cbb 06f0 f539
00000040: a1e8 2e3b d478 b3ba da20 16bb 6b8d 5ebb
00000050: 9832 04bb f359 9abc 9be6 08bb e074 12be
00000060: e7d7 a8bb 4e5c 5dbb be93 93bb 4c57 1fba
00000070: 15f7 323a ca3d 3d3b 56ec a7ba ab04 96bb
00000080: b39c d4ba d47f a9b9 5c38 8cba df7c 8ebb
00000090: 67db 45bc b17b e9ba 059a 18bb b920 56bb
000000a0: 910d bbbb 312c 893b 975d 12bb b559 b63a
000000b0: 8c88 14bb 8ea6 6d3b f755 7fbb a8a0 c2bc
000000c0: 89cb ec3a 6f8e 24bc 7407 30bb 8a3c e6bb
000000d0: 23c0 1a3b 72d1 09bb caa4 2db9 d666 c6bb
000000e0: c787 da3a baa3 9dbd 80bb e9b9 138c 3cbc
000000f0: 2c70 a0ba a7f8 9b3a eb84 1ebb 85fb 51bc
00000100: fb44 28bb fa7c 3f3b 4ffe a23a 9d95 59bb
00000110: 71ef 25bb 47f7 4639 e35f b6bb 44be cdb9
00000120: 2a47 3d3a 417f d83b faf3 6139 4251 b0b9
00000130: aee7 43bb 37dc 023b eb7e 60bb 17e9 e93a
00000140: aab4 11b9 0ff5 76ba 50f9 003b af03 ab3b
00000150: 7aba e1b9 fa46 d3bc ff15 3fbb dc87 4bbe
00000160: f8d7 20bb 7c8a 13ba 6f0c 02bc 5957 943a
00000170: cfa2 903b 7086 60bb 6092 84b9 3e9f 89ba
00000180: 4f35 dfba 3d73 02bc e384 81bb 4d63 78ba
00000190: 5db3 6fbc 7b21 e4ba eb16 e8b9 d7ff 9ebb
000001a0: 7668 cbba f0e7 00bb 2729 9939 0164 7cbb
000001b0: 2ce0 88b9 e11a 8cba c2a2 e33a 52b8 63bd
000001c0: 507e 27bb 28aa 18bc ba3e b83a 7e4b a5bb
000001d0: 3a6d c2bb a122 2b3a e6f9 26bb 6b88 08bc
000001e0: f816 953a a235 fbbd df5a 773b 58f9 1ebc
000001f0: eecb a8bb ec59 8739 57d6 e63a ca4f 1fbc
-0.0012130378 0.0047014966 0.00019910868 0.00038256843 0.0025226993 0.003710521 -0.0014843977 0.0015121792
0.003190541 0.00015473668 0.0056482013 -0.0021076454 0.0009667999 0.0013407975 -0.0023916857 0.00046908873
0.002668895 -0.0013692626 -0.0022907765 -0.0033958803 -0.0020171758 -0.01884172 -0.0020889405 -0.14302397
-0.0051526907 -0.0033776942 -0.004503696 -0.0006078377 0.0006826979 0.002887594 -0.0012811522 -0.004578193
-0.0016221016 -0.0003232943 -0.0010697949 -0.004348382 -0.012076235 -0.0017813352 -0.0023285162 -0.0032673313
-0.0057084044 0.004186176 -0.0022333616 0.0013912233 -0.0022664396 0.0036262604 -0.003896115 -0.023758247
0.0018066029 -0.010043724 -0.002685991 -0.00702626 0.0023613058 -0.002102938 -0.00016559954 -0.0060547395
0.0016672545 -0.07697244 -0.00044580922 -0.011508006 -0.0012240461 0.0011899666 -0.0024188112 -0.012816315
-0.0025675881 0.002921878 0.0012435409 -0.0033200749 -0.002531972 0.0001897487 -0.00556563 -0.00039242406
0.0007220382 0.0066069667 0.0002154856 -0.00033629878 -0.002989273 0.0019967684 -0.0034255337 0.0017845955
-0.0001389558 -0.0009420672 0.0019679852 0.005218945 -0.0004305428 -0.02579068 -0.0029157398 -0.19876045
-0.002454279 -0.0005628241 -0.007937535 0.0011317536 0.0044139395 -0.0034259818 -0.0002528606 -0.0010499728
-0.0017029437 -0.007962045 -0.003952609 -0.0009475246 -0.014630166 -0.0017404997 -0.00044267563 -0.004852276
-0.0015518803 -0.0019669496 0.00029213095 -0.0038511755 -0.00026106962 -0.0010689163 0.0017367231 -0.055595703
-0.0025557466 -0.009317912 0.001405678 -0.0050443998 -0.005933431 0.00065282924 -0.002547854 -0.008333306
0.0011374643 -0.12266089 0.0037743372 -0.009703003 -0.0051512634 0.00025816204 0.0017611486 -0.009723613

convs.0.bn1.running_mean f4 [128]
00000000: 7efa 443d 25b6 d9bd 6943 66bd 483f 583d
00000010: 2dd5 193d 6b0c 643c 4724 57bd 6ece 94bd
00000020: 0548 fb3d 0b7e 61bd be4b 8dbd 5456 6c3d
00000030: a410 d2bd a48f 143d f3d5 bd3c b064 49bd
00000040: 0b0e e73c 3608 97bd c922 1fbd 0d6d 6ebd
00000050: a9f2 b63d 0290 e2bd 92e8 5cbd d1b4 62be
00000060: 91cc a3bc b9a4 183e 8557 81bc 1655 9f3d
00000070: c600 ba3d 389c 67bd 7ba4 823d c31f 763e
00000080: d3a7 81bd 90f8 bdbc 3caf 01be 9c04 36bd
00000090: 890d b33b eedc 33be ce3c b7bd 5368 8e3d
000000a0: c150 0b3e f9ff 8dbd 6452 933c 64d2 1dbe
000000b0: c45e a5bd 2664 13bd ae56 c63d 3952 103e
000000c0: 8f96 b1bc bd98 2fbd a205 d03b d697 823d
000000d0: 6043 873d 24dd d03c fd63 15bd c255 f23d
000000e0: 7ab3 49bd bf25 423d 1e92 a93d 143b 89bc
000000f0: a480 e13c a058 21be 38e4 d03c 5e02 d83c
00000100: 1a9c 463d aff7 bdbd a7db 9f3b e5d9 d03c
00000110: 8c23 c23d 4cb9 81bd b674 223c 03c7 903d
00000120: fa9d d6bd a2ff 72bc 1df4 533d 0345 d73d
00000130: eb58 7cbd 27a1 31bd cfd3 1bbc 26a9 e3bd
00000140: f769 7f3d 2be1 69bd ca01 093d 378b 193e
00000150: 9e1e 053e 889a f2bc d596 013d 2e1f d6bd
00000160: a952 663c 388d b73c 641a d53d 33c2 e4bc
00000170: 7565 1cbe 85a1 8e3c 5130 833d 885c 403e
00000180: 5491 6fbd 0a13 353d a940 41bc f047 0c3e
00000190: 4fd2 163c 7f4d b8bd 9bc1 e3bc bf1a 33bc
000001a0: e2db e93d 98bb 383e 0701 133d a23c 453e
000001b0: 5707 4f3d e733 0cbe f2b9 633d db33 86bd
000001c0: f2ca 79bd 16cf e4bd 9f9a d03d da8f 0dbd
000001d0: a39a aabd f66b 74be 85fd ce3d 9f63 143e
000001e0: a8b6 663d 539c c2bd 63c3 943c 7ee0 bb3b
000001f0: 8f39 fa3d d866 773d a2cd afbc 4ff9 423e
0.04809045 -0.106304444 -0.05621663 0.052794725 0.037556816 0.013918976 -0.05252483 -0.07265936
0.12269596 -0.055051845 -0.06899212 0.057699516 -0.1025708 0.0362698 0.023173308 -0.04916829
0.028204938 -0.07374613 -0.038851533 -0.058209468 0.089330025 -0.110626236 -0.053932734 -0.22139288
-0.019995006 0.14906587 -0.015788803 0.07779901 0.09082179 -0.056545466 0.063790284 0.24035554
-0.06330838 -0.023189813 -0.12664503 -0.04443799 0.00546426 -0.17564747 -0.089471444 0.06953492
0.13605024 -0.069335885 0.017983623 -0.15412289 -0.08074716 -0.03598418 0.096845016 0.14093865
-0.021678237 -0.042870272 0.0063483277 0.06376617 0.06604648 0.025496073 -0.03647231 0.11832763
-0.049243428 0.04739928 0.08279823 -0.016751803 0.027527161 -0.15756464 0.025499448 0.026368316
0.048488714 -0.092757575 0.0048784795 0.025494525 0.09479436 -0.06334171 0.009915521 0.070692085
-0.104793504 -0.014831455 0.051746476 0.1051121 -0.061608236 -0.043366577 -0.009510948 -0.11116247
0.062356915 -0.057099503 0.03344897 0.14994512 0.12999961 -0.029614702 0.031637985 -0.10455166
0.014057794 0.022406206 0.10405424 -0.027924633 -0.15273078 0.017411003 0.064057 0.18785298
-0.058488205 0.04420761 -0.011795201 0.13699317 0.009205415 -0.08999156 -0.02780228 -0.01093167
0.114188924 0.18040311 0.03588965 0.19261411 0.05054411 -0.13691674 0.055597253 -0.065528594
-0.06098456 -0.11172311 0.10185742 -0.034561016 -0.08330276 -0.23869309 0.10106949 0.14491127
0.05632654 -0.09502473 0.018159574 0.0057335487 0.1221801 0.060400814 -0.021460358 0.19040416

convs.0.bn1.running_var f4 [128]
00000000: 451d b03b f834 763c f834 083c f0be b83b
00000010: 8516 343c a764 383c cb04 b13b 4ca7 1d3c
00000020: 83cd 1d3c f873 123c a759 113c 5a7c 0c3c
00000030: 730c b73b a3d2 0c3c 7656 c83b 9314 0f3c
00000040: fa28 cb3b 4a8a d73b 5050 b23b efbd 493c
00000050: 028c 8d3c bef5 2b3c ef1a 373c d70c 3c3d
00000060: caf4 d43b 3bba cd3b 85dd bf3b ddbd 483c
00000070: 716f 4a3c b01d 263c b575 513c c37a 343c
00000080: e64d a93b f68d 033c 59a9 c23b 4933 153c
00000090: b68a 553c afd3 b53b f016 453c 7198 c23b
000000a0: 5569 f23b c84c 203c 1d6c a63b da35 ff3b
000000b0: d6ea 0e3c d0ce 013c 4947 e03b b0c4 913c
000000c0: 6f2a 0f3c 4adf 533c f745 213c d0c7 2a3c
000000d0: 9cdf 303c 3673 e53b 2325 4b3c c1ae 1a3c
000000e0: 43bc 213c 6db4 a53c 1712 333c 3694 023c
000000f0: 5b28 be3b f3bd 363c 83db 2b3c 7bfa 153c
00000100: 1403 453c 4c84 393c 7bdd 483c d334 7e3c
00000110: 2b44 1c3c 00aa 3a3c dfaf ee3b f254 3f3c
00000120: 8f71 343c 3ca7 533c 3183 1b3c e4d9 663c
00000130: 963c 4b3c 2b2d 103c 9204 de3b 0e05 3b3c
00000140: 6d45 183c deb0 063c 2e59 4e3c 10fa 693c
00000150: 8aa5 c63c 3099 823c c911 373c d767 603d
00000160: e6d4 013c b382 3d3c cbb7 043c cf1b 5a3c
00000170: a5f1 483c cdd1 4a3c c084 983c 7c17 2e3c
00000180: 147f 2f3c 414a 793c d45e 033c 2375 493c
00000190: 532b 903c 4ed1 fc3b 807d 243c 3652 c63b
000001a0: 5621 853c 004e bd3c 40f5 273c 6540 4c3c
000001b0: 35fb 643c f051 953c 2773 063c c4a2 813c
000001c0: 1a16 5b3c 7410 2b3c 091b 673c 8a11 2b3c
000001d0: a112 953c 0ea0 873c 53c4 893c ed5c 1b3c
000001e0: a135 053c efb4 8b3c 583f 263c c761 3f3c
000001f0: c517 b73b d3d8 213c 1a49 863c 53d5 743c
0.005374583 0.015027277 0.00831341 0.005637996 0.010991697 0.011254466 0.0054021827 0.009622406
0.009631517 0.008938782 0.008871472 0.00857457 0.005586201 0.008595142 0.0061138226 0.008732933
0.006199953 0.0065777646 0.005441703 0.01231335 0.017278675 0.010495601 0.011175855 0.045910683
0.0064989077 0.006278304 0.0058552646 0.012252298 0.012355671 0.010138914 0.012784411 0.011015597
0.005166757 0.008029452 0.005940598 0.009106466 0.01303356 0.0055489163 0.0120293945 0.0059385826
0.0073978105 0.009783931 0.005078806 0.007788402 0.008722981 0.007922843 0.0068444354 0.017793983
0.008738144 0.012931654 0.009843341 0.010423616 0.0107955 0.0070022596 0.012398991 0.009441079
0.009871545 0.020227635 0.010929606 0.007969907 0.0058031506 0.011153686 0.010489347 0.0091539575
0.01202466 0.011323046 0.012259836 0.015515524 0.009537737 0.01139307 0.007284149 0.011677967
0.011013403 0.01291829 0.009491728 0.014090035 0.0124045815 0.008799831 0.006775447 0.011414779
0.009293896 0.008220879 0.012594504 0.014280811 0.024248857 0.015942186 0.011173674 0.05478653
0.007924294 0.011566806 0.00810046 0.013312294 0.012264644 0.012379122 0.018617988 0.010625716
0.01071145 0.015215457 0.008018214 0.012295994 0.017598784 0.0077153808 0.010039687 0.006052281
0.016251247 0.023108482 0.010251343 0.012466525 0.013975908 0.018227547 0.008206165 0.015824683
0.013371969 0.010440934 0.014105567 0.010441193 0.01819736 0.016555812 0.016817247 0.009482604
0.008130462 0.01705405 0.010146938 0.011681027 0.0055875503 0.009878355 0.01639228 0.014943439

convs.0.bn2.weight f4 [64]
00000000: 1b4d 7c3f c1f1 7f3f 54b7 7d3f 9f85 823f
00000010: cf05 7f3f 0dad 7c3f 6057 7c3f aa2a 823f
00000020: 79d3 7e3f ce84 7b3f 9802 7f3f f777 7c3f
00000030: ff9b 7e3f a629 723f 2a44 813f a94e 793f
00000040: c322 7e3f 32ba 803f b676 793f 3f88 803f
00000050: 592f 823f de65 813f 4537 803f ca83 923f
00000060: 708d 813f 2796 7f3f cf23 803f 2e59 813f
00000070: 74fa 7d3f a6c8 7c3f 6282 823f 9364 823f
00000080: ffce 7e3f ba35 7b3f 72ed 7b3f ad31 793f
00000090: 68e4 813f d7d3 7f3f 4835 783f ffcc 7e3f
000000a0: 6e4c 7e3f 2bae 813f b7bd 803f 7a25 7a3f
000000b0: ae1e 803f 1000 823f a0b4 7d3f dc1c 8d3f
000000c0: 6342 813f 96b5 793f 799d 7b3f 17c8 823f
000000d0: 5af0 7f3f 277c 7a3f ccbe 7c3f 7d88 843f
000000e0: 0b8d 7f3f 0b51 8b3f 2063 803f 2c01 823f
000000f0: c72b 823f c13b 803f d236 7b3f fd4e 853f
0.98555154 0.9997826 0.9910786 1.0197028 0.9961824 0.98701555 0.98570824 1.016927
0.9954143 0.9824952 0.9961333 0.9862055 0.9945678 0.945948 1.0098927 0.9738565
0.9927179 1.0056822 0.97446764 1.0041579 1.0170699 1.0109212 1.0016867 1.1446469
1.0121288 0.9983849 1.0010928 1.010534 0.99210286 0.98743665 1.019604 1.0186943
0.995346 0.98128855 0.9840919 0.97341424 1.0147829 0.99932617 0.969563 0.9953155
0.9933537 1.0131277 1.0057896 0.97713435 1.0009363 1.0156269 0.99103737 1.1024432
1.0098385 0.97542703 0.9828716 1.0217313 0.9997612 0.9784569 0.9872863 1.0354153
0.9982459 1.0884107 1.003025 1.0156608 1.016961 1.0018235 0.98130524 1.041473

convs.0.bn2.bias f4 [64]
00000000: 452a fbbc 14eb 8abc c8c9 c4bb 5aa1 3c3b
00000010: 0ae5 debb 4c1d aaba 75fe 42bc 3670 323c
00000020: 65c4 31bb 1d3f 1ebc 0ed2 333b 5a68 833c
00000030: e1cd 1ebc 0398 4ebc 4bc3 43bb 080c 5dbb
00000040: 0e66 4eba 142c d1bb aea0 69bc afed 37bb
00000050: 6aee c93c 56a9 283c 89e6 dabb a2e4 8c3d
00000060: 7816 dbbb 936e c6bb baeb 0ebc 7180 f8ba
00000070: 8efb a6bb 1be9 babb e6f5 653c ebae 0cbb
00000080: 2629 97bb e657 d53a 08c1 42bc b6bd 06bc
00000090: 8a19 0cbc 02b0 deba ea03 b5bb 9455 edbb
000000a0: ee8e 77bc 4eff b7ba 3fe5 12bc 3ebe 78bc
000000b0: 01b9 aa39 d4b0 beba 9954 e5bb d92e d3bc
000000c0: c71e 473b 4114 3abc 702c a5bb 0535 82bb
000000d0: 9eff 10bc f604 4ebb d419 81bb 707d 383b
000000e0: 7b05 44bc 1dbb 8f3c acb0 b33b 410a cabb
000000f0: 486a a9bb c6c3 e33a e2a8 be3b b1eb 49ba
-0.030659804 -0.016957797 -0.0060054995 0.0028782696 -0.006802206 -0.0012978702 -0.011901488 0.010891011
-0.0027125117 -0.009658602 0.0027438435 0.01604097 -0.00969264 -0.012609485 -0.0029871042 -0.0033729095
-0.00078734837 -0.0063834284 -0.0142595 -0.0028065254 0.024649817 0.010294279 -0.006680314 0.06879546
-0.006686028 -0.006055662 -0.008723194 -0.0018959177 -0.0050959056 -0.005704058 0.014035678 -0.0021466564
-0.0046130596 0.0016276806 -0.011886843 -0.008223942 -0.008551011 -0.001698971 -0.0055241482 -0.0072428677
-0.015109761 -0.0014037879 -0.008965789 -0.015182076 0.00032562765 -0.0014548548 -0.00699861 -0.025779175
0.0030383335 -0.011357368 -0.0050406978 -0.0039736056 -0.008850006 -0.0031436062 -0.0039398465 0.0028150938
-0.011964197 0.017545277 0.0054837074 -0.006165773 -0.0051701404 0.0017377071 0.0058184722 -0.0007702662

convs.0.bn2.running_mean f4 [64]
00000000: b5a8 9c40 4c39 af40 9254 a040 c696 9840
00000010: de95 a340 e640 b240 90e2 9f40 7781 ab40
00000020: e89f 9440 9327 9940 2915 a940 3fab a240
00000030: 26c9 a240 ab31 a240 fc95 a340 ba0e a440
00000040: 67f0 9d40 f807 a340 a2d3 9e40 3851 9b40
00000050: 91f1 a740 ecdc a040 4a90 9a40 f335 8840
00000060: 9ca7 9540 b09d aa40 c4cd ae40 2f8c a740
00000070: a34d 9440 4650 9d40 7411 a740 a39b 9f40
00000080: d2b0 9440 4ff3 a640 3e40 a940 8a1c af40
00000090: d96e 9e40 9dd7 9f40 eccd a540 826d 9640
000000a0: 2d0f a040 286e a740 da20 9c40 1075 9540
000000b0: d4ad b040 9bbb a740 5aad ab40 cf86 7540
000000c0: 8844 a640 49bd a240 d65d a540 91c0 8e40
000000d0: 0684 9b40 c52d 9e40 9bd3 a140 a5fc a740
000000e0: 8971 9640 0c22 8440 b313 a140 feb9 a640
000000f0: b092 9a40 e5d3 a940 0b36 a840 d2dc b440
4.895594 5.4757442 5.0103235 4.768405 5.1120443 5.570422 4.9964066 5.359554
4.64452 4.786081 5.283833 5.083404 5.0870543 5.068563 5.1120586 5.1267977
4.935596 5.0947227 4.963334 4.8536644 5.248238 5.026968 4.8301134 4.2565856
4.67671 5.331749 5.462618 5.2358623 4.634477 4.916049 5.2208805 4.9877486
4.6465845 5.2172008 5.289092 5.472234 4.951031 4.99507 5.181387 4.7008677
5.0018525 5.232197 4.87901 4.67054 5.5212193 5.241651 5.364911 3.836353
5.1958656 5.085606 5.1677046 4.4610066 4.859866 4.943087 5.0570807 5.2495904
4.7013593 4.129156 5.0336547 5.210204 4.830406 5.307116 5.256597 5.6519556

convs.0.bn2.running_var f4 [64]
00000000: 9fd9 d040 d689 8f40 1b14 1041 f941 d340
00000010: 674c 7741 5d35 9841 6e31 cd40 63c6 7941
00000020: bd27 cb40 e27b 5641 6a57 1f41 9f7d 8940
00000030: b254 0641 33d1 d940 448a fc40 47ed 1d41
00000040: 35a5 e640 3684 aa41 e5de 2541 ed8e 0341
00000050: 78d2 9b40 a1f1 6940 2d6a aa40 3d18 e73f
00000060: c296 4641 1eea 0341 e038 0641 2bda 6540
00000070: accc 1841 e8bc d740 6061 8e40 a722 c240
00000080: a0a5 f040 c731 b140 a9dc f640 b607 1f41
00000090: aa85 6140 4074 3f41 feac 0a41 07e9 8540
000000a0: 0c56 a740 129c ed40 78bc 0141 4236 a940
000000b0: 96d0 3b41 1105 6741 2fcc ed41 daa3 dd3f
000000c0: d275 4841 49a0 b140 b84c c240 31a2 6340
000000d0: c8c4 6241 05a9 8d40 3053 bc40 4966 e440
000000e0: ff07 b540 b6ff c33f b41a da40 b2d0 9640
000000f0: b5c7 1241 594f 8b41 6ebb 4a41 24ae 4341
6.526565 4.4855757 9.004909 6.6018033 15.456153 19.026056 6.412284 15.610934
6.348601 13.405245 9.958841 4.2965846 8.395678 6.806787 7.891878 9.870429
7.207667 21.314556 10.366918 8.222394 4.869442 3.6553729 5.325461 1.8054272
12.411806 8.2446575 8.3888855 3.591441 9.549969 6.74181 4.4493866 6.06673
7.520218 5.5373263 7.714436 9.939383 3.5237832 11.965881 8.667234 4.1846957
5.229254 7.4253016 8.108513 5.2878733 11.738424 14.438737 29.724699 1.7315629
12.528765 5.550816 6.071865 3.5567744 14.173042 4.4268823 5.8851547 7.137486
5.657226 1.5312412 6.8157597 4.7129755 9.173757 17.413744 12.670759 12.230015

convs.1.fc_full.weight f4 [128, 169]
00000000: 5fa8 19bb 37d5 3bbd eb32 a43d fd91 513c
00000010: 51fd 6a3c d026 13bd d912 2f3d 0690 653d
00000020: 604c 89bd d4cd 74bc f6b5 af3c b701 c4bc
00000030: 212d 933d 017d 0ebd 8709 813d c18a 1fbd
00000040: 33c4 2d3d 5a51 bdbc 4772 773d 373e 42bd
00000050: 6de1 093e f986 a03c 6690 ae3c cae1 34be
00000060: 2420 963d cc55 263d 6824 063b f48c 3c3d
00000070: fe55 633c bb4b 3a3d 495a 9c3d 1763 6bbc
00000080: c6d6 c43c cd96 bb3c c6f1 22bd 8caa 383d
00000090: b6c4 d23c dc90 1cbd b398 5a3d 69b6 083c
000000a0: 371f 0a3d fa14 b03d 73f3 383d e36b 0abc
000000b0: 7db4 303d f9d1 a7bd b1ec 2dbd 0ab5 cf3d
000000c0: e4b8 8d3d ea5b 1bbd e13c 49bd 9fb7 66bd
000000d0: 1a41 9bbd 4805 f43c 1a60 a53b 462b 633d
000000e0: 4319 d83d 7fd8 c3bd 0ff6 8f3c a1f8 e43d
000000f0: 184f 193d 015e 92bd 2b97 c7bc d822 96bd
00000100: b187 623d 0f38 f73c 5981 25bd 724c f2bc
00000110: ddcf f4bc 80db 31bc 5534 fa3c 327b 093c
00000120: e501 b93c 3e44 9a3d d66d a03d 74d9 8bbc
00000130: 67dd 0d3d 7c52 08bc 1661 9cbc 9a3a b03c
00000140: 1539 923d 8f9b 60bd fc73 003d 338c 053b
00000150: 8d50 323d 074f 193d 5632 833a 10e3 e73c
00000160: 19bf 7b3d 9d87 57bd fdca 11bd c0f5 54bd
00000170: 88c3 50bc 782a 6e3c c8fc b93d 5962 d03c
00000180: 5aa7 a33b 1168 f5bb 3ed8 29bb 07f1 863d
00000190: 5743 67bd 25fd ef3c 962e e23c 673d 933c
000001a0: e72d 8f3d b693 2fbd d346 e03c 5742 13bd
000001b0: 3fc4 42bd ec50 03bd 9eda 9f3c 9058 d5bd
000001c0: 7cd7 5f3c 8b8e 35bd f384 34bd bb8b 003d
000001d0: ecda 5b3b a692 78bd 8afa 41bc 3f95 d03c
000001e0: d094 b53b e3c3 a0bd 46e9 bdbc eb6e 8bbd
000001f0: 025e 1fbd e142 88bd aad5 c13b 12d5 133d
00000200: e492 b23c aba0 143d cf67 4bbd 85fb bcbc
00000210: 97c3 e33c f2f7 58bd 1846 c63c 35ca 283d
00000220: 4b21 10bd a93a 8ebd baca 283d bd96 28bd
00000230: a38e 93bd eea1 c4bc 508e 273d 1f36 9b3d
00000240: e984 07bb 9bb9 093c 0f29 8ebb 5ada 893d
00000250: 54d8 6b3d 7ebf 59bd f20a 29bd b372 673c
00000260: 19c7 24bc ba1a 4d3c 7e34 193d 7eeb 99bd
00000270: 063b 683c 57d4 4a3d c94c 65bd 40b8 963d
00000280: de7a 75bc 8a4d 84bc 1259 743d 40c2 07bd
00000290: df31 42bb b4f6 5e3a 6e2c 43bd cc29 c1bc
000002a0: 6d75 57bd 1e60 89bd a002 013c 7e30 863d
000002b0: 828b 94bd 428c 5d3d 0322 b23c 9752 0ebd
000002c0: f50e 353d 5b37 133c 48f4 94bc 51ae 77bd
000002d0: dc56 a4bc 63ce 76bd 4784 803d 6d69 813b
000002e0: 4282 ec3c c67a 603d 01a0 993d d4db e7bc
000002f0: 1e1b 043d b042 ec3b 7450 63bd 9550 21bd
00000300: 0029 73bd d4ff 85bd 57b3 55bd baf5 773d
00000310: 8ada ab3c 7181 7abb c6ec 38bd 8a2a 83bd
00000320: b940 22bd 9ecf a83c 0397 79bd 617d 98bd
00000330: 0d3b 17bd 6834 443d c007 9b3c 57c5 0d3d
00000340: be41 ae3c b8f5 82bb 36b8 413d 0827 a2bd
00000350: fea8 ca3c 9034 9a3d e3ca 0ebb 7d40 203d
00000360: e7bb 33bc fb22 c13c c95b 91bd 784c 2fbd
00000370: cbf2 e83a 90aa cb3c 1d1e af3c 316e a63b
00000380: d0c6 a1bc 1d3d 473b ee4a 04bd 5f5c 13bd
00000390: 090f 3ebd 098e 07ba b58c 323d def7 283c
000003a0: 0ad4 043d 64a3 743b ef0a 333d 4197 a03d
000003b0: 5031 ef3c fb44 77bd caba 22bd a53a 273d
000003c0: 0890 d9bc 3a38 053d da76 453d 9c63 efbc
000003d0: 5877 a4bd 8624 e8bc c8e8 563c 6ed3 9b3d
000003e0: 8864 49bd 26f4 81bd 2468 9e3c fca7 913d
000003f0: 26ca 7dbd 35b1 d3bc 1d5b 743d fbc5 2dbd
-0.0023446304 -0.045857634 0.08017524 0.012791154 0.014342622 -0.035925686 0.042742584 0.056045555
-0.067040205 -0.014941651 0.02144907 -0.023926599 0.07186342 -0.03478718 0.06300645 -0.038950685
0.04242344 -0.02311008 0.060411718 -0.047422614 0.134649 0.01959561 0.021309089 -0.17664257
0.07330349 0.040609166 0.0020468477 0.04603286 0.013875483 0.04548238 0.07634408 -0.014366887
0.024028193 0.022899056 -0.039781354 0.04508452 0.025728565 -0.038224086 0.05336828 0.008344271
0.033721175 0.08597751 0.045154046 -0.008448574 0.043140877 -0.08194346 -0.042462055 0.10141952
0.06920031 -0.037929453 -0.049130324 -0.05632746 -0.075807765 0.029787675 0.0050468566 0.05546119
0.10551693 -0.09562778 0.017573385 0.11180235 0.037428945 -0.07146836 -0.024364075 -0.07330865
0.055305187 0.030178098 -0.04040656 -0.029577468 -0.029884273 -0.010855556 0.030542532 0.008391188
0.022583911 0.075325474 0.078334495 -0.017071463 0.034634974 -0.008320447 -0.019089263 0.021512318
0.07139794 -0.054835852 0.03136061 0.0020377755 0.04353385 0.037428882 0.0010009508 0.028306514
0.06146154 -0.052619565 -0.035593975 -0.051992178 -0.012741931 0.0145364925 0.09081417 0.02543752
0.004994315 -0.0074892123 -0.0025916244 0.06588941 -0.056460705 0.029295513 0.027610105 0.017973615
0.06991177 -0.042865478 0.027377522 -0.03595194 -0.047550436 -0.032059595 0.019513424 -0.104172826
0.013662215 -0.044325393 -0.044072103 0.031383257 0.0033547236 -0.06068673 -0.011839518 0.025461791
0.0055414215 -0.078498624 -0.023182523 -0.06808265 -0.038908012 -0.06653381 0.0059153633 0.03609187
0.021798559 0.036286037 -0.049659546 -0.023069153 0.027803225 -0.052970834 0.024203345 0.041208465
-0.035188 -0.06944782 0.04120896 -0.04115938 -0.0720494 -0.024002995 0.040907204 0.07578682
-0.0020678586 0.008406068 -0.0043383907 0.067311004 0.057579353 -0.053161137 -0.041270204 0.0141264675
-0.010057234 0.012518579 0.037403576 -0.0751562 0.0141742285 0.04951891 -0.05598143 0.07359362
-0.014982907 -0.016150255 0.059655257 -0.033144236 -0.0029631776 0.00085053896 -0.047649793 -0.0235795
-0.05260222 -0.06707786 0.007874161 0.06552218 -0.072531715 0.05408884 0.021744734 -0.034746733
0.044203717 0.008985366 -0.018182889 -0.060468975 -0.020060949 -0.06025542 0.0627523 0.0039493353
0.028870706 0.054804586 0.075012214 -0.028303064 0.032252423 0.007210098 -0.055496648 -0.03938349
-0.059365273 -0.06542936 -0.052172985 0.060537077 0.020978231 -0.0038224126 -0.04514768 -0.06404598
-0.039612506 0.020606812 -0.06093503 -0.07445789 -0.03692155 0.04790154 0.018924594 0.034612026
0.021271583 -0.003996577 0.047294818 -0.07917601 0.024738785 0.07529557 -0.002178841 0.039124
-0.010970092 0.02357625 -0.07097585 -0.042797536 0.0017772553 0.024861604 0.021376664 0.005079054
-0.019748122 0.0030401417 -0.03229802 -0.035976764 -0.046401057 -0.0005171006 0.04359122 0.010313002
0.03242878 0.0037328834 0.0437116 0.078413494 0.029198319 -0.06036852 -0.039728917 0.040827412
-0.026557937 0.032524325 0.04820905 -0.029222302 -0.080305755 -0.028337728 0.013117023 0.076086864
-0.04916814 -0.06345396 0.019336767 0.071121186 -0.061960362 -0.025841335 0.059657205 -0.042425137

convs.1.fc_full.bias f4 [128]
00000000: 1978 273d 7598 8dbd 1d91 e33b b07b 2f3d
00000010: e2ed 8ebd e0fa 28bd 36e7 b8bc 4479 e63c
00000020: 90b0 d2bc 0fea 6e3d 6205 83bc 114c 893d
00000030: 2b4f 883d 7a2f ee3c a0df 03bc d515 24bc
00000040: 8e9a f6bc e8f7 08bb f098 b73c cef4 3d3b
00000050: 5070 8f3b 7021 ff3c 635f 77bd ae3d 693d
00000060: f3a0 c5bb 6db3 13bd c947 633d 72d5 8abc
00000070: 62cd 463d cd95 913d 391b 89bd 100f 913c
00000080: 527c c4bb 3107 b8bc 0243 d3bc baf8 9abd
00000090: 682e 91bc b687 6abc daad 6b3d a6bb 47bd
000000a0: 201e 9bbd e10a 503d b990 10bd 702b 7cbd
000000b0: 2993 ddbc 23b4 d73c a2ab 6e3d 1f47 36bc
000000c0: f0f1 623d 7a63 c1bc d288 5ebd 6d31 34bd
000000d0: 0a69 263c dfd4 3dbb 12e3 01bd 0fa2 073b
000000e0: c762 f23c 61df 843d d3a5 07bc 7e86 533d
000000f0: 74fc 43bd b430 66bd 05fc 943d aa7e 363d
00000100: 66a2 423d 006a 353d 4b0d 8eba d2d6 12bd
00000110: 3b78 c039 86fb febc 3553 cebc d94a 413c
00000120: 8951 153c b47b 7e3d a56c e53c 016c 04bd
00000130: 3e53 05bd bd8f 9d3b 142c b63c b03b f9bc
00000140: feac 5a3c d1af c6bb 8f10 523d 87fd e9bc
00000150: 439e 5bbc 6b7d 88bd 8cd4 4ebd adc2 66bd
00000160: 7b7a b93c 197a 0bbd 47aa 10bd 27c6 843d
00000170: b85c 1c3d e2e0 5d3d d843 6a3d cd7c 6abd
00000180: bb6a fabb 733a 58bc 03bc 0f3d 30ad 8bbd
00000190: a8f7 79bd b3d1 99bd f730 9b3d d425 95bb
000001a0: 8e36 8a3d 5d1e 923d 1f97 86bc be86 e5bc
000001b0: 3fc1 4dbd 5a00 82bc aec7 82bd b434 24bc
000001c0: 2a1a d4bc ef4e 9a3c 4239 6c3d 0b10 e73b
000001d0: 05ea b0bc b046 6dbd d12b 653c 582e a73c
000001e0: 5ec9 50bd c2ee 533d b657 2b3d ad5e 243d
000001f0: 0c57 b8bc c3c2 e3bc 783a 23bc 54e8 5bbc
0.04088602 -0.069138445 0.006944789 0.042842567 -0.06978966 -0.041254878 -0.022571187 0.028133996
-0.025718957 0.058328684 -0.015993778 0.06703962 0.06655725 0.029075373 -0.008048922 -0.010014971
-0.030102994 -0.0020899717 0.022411793 0.0028985026 0.0043774024 0.031143874 -0.060393702 0.056943588
-0.0060311495 -0.036059786 0.05548838 -0.016947482 0.048535712 0.0710865 -0.066946454 0.017707378
-0.0059962654 -0.022464367 -0.025788788 -0.07566972 -0.017722324 -0.014314583 0.057538845 -0.04876294
-0.07574105 0.050791625 -0.03529427 -0.061564863 -0.02704771 0.026331013 0.05826915 -0.011125355
0.05540651 -0.023607004 -0.0543297 -0.04399245 0.010156879 -0.0028965992 -0.03171069 0.002069596
0.029588116 0.06487919 -0.008279282 0.051641934 -0.04784818 -0.05619879 0.072746314 0.04455439
0.047518156 0.044290543 -0.0010837702 -0.0358494 0.00036710672 -0.031125795 -0.02518616 0.01179763
0.009113678 0.06212969 0.028005907 -0.032329563 -0.03255009 0.0048083947 0.022237815 -0.030423969
0.013346909 -0.0060634394 0.051285323 -0.028563274 -0.013404432 -0.066645466 -0.05049567 -0.056338
0.022641411 -0.03405199 -0.03531864 0.06483107 0.03817436 0.054169543 0.057193607 -0.057247926
-0.007642118 -0.013197529 0.03509141 -0.06820142 -0.0610272 -0.075107 0.07577699 -0.0045516286
0.06748687 0.071346976 -0.016429482 -0.028018352 -0.050233122 -0.015869308 -0.06385742 -0.010022331
-0.025891382 0.018836467 0.057671793 0.007051473 -0.021595964 -0.05792874 0.013987497 0.02040784
-0.05097329 0.05174137 0.041831695 0.040129352 -0.022502445 -0.02780283 -0.0099626705 -0.013422091

convs.1.bn1.weight f4 [128]
00000000: 3442 883f 830b 803f 4dc2 803f 0183 803f
00000010: 5c9d 803f 61b5 803f 3a57 7f3f 075b 803f
00000020: 6ae0 803f 21ba 823f 848f 803f e4fe 803f
00000030: f278 7f3f 1d4e 7f3f 79c2 803f 0571 813f
00000040: cd20 823f b01b 803f d18c 813f 1c15 803f
00000050: 3725 813f d6b6 7f3f 0101 813f 8482 803f
00000060: d3a7 803f d85e 803f 333f 803f 3685 803f
00000070: 1235 803f 4132 803f 0e3f 7e3f 7a0f 803f
00000080: ba0b 803f b2d3 7f3f 486a 803f 7c28 803f
00000090: d4c2 803f e643 813f 75ef 803f 191c 803f
000000a0: ccd1 813f f1f3 813f ab3d 803f a53b 813f
000000b0: 87dd 803f 2226 803f cba1 803f e975 823f
000000c0: 6dc6 803f 7978 803f d444 803f 9b3d 803f
000000d0: 35de 813f b6d1 803f d67a 803f fbd4 803f
000000e0: ab53 813f c437 803f d7c9 7f3f f7c8 813f
000000f0: 3a76 803f 068a 833f 7b30 813f 6dbf 803f
00000100: 8d2e 893f 9192 803f 5828 813f 3700 813f
00000110: 4cd5 803f 272d 7f3f cfc7 803f 0669 7f3f
00000120: 09d4 7f3f 7384 823f 7de0 7f3f fd56 803f
00000130: ab93 803f f4b7 803f 667f 7f3f 90cb 803f
00000140: de18 823f 33e7 803f 47c6 803f 3705 813f
00000150: 3928 803f ff1b 803f 7fd2 7e3f d84d 803f
00000160: 13a8 7f3f 3864 803f da9d 803f 7bff 7f3f
00000170: e185 7f3f af85 803f 7d5d 813f 599b 7f3f
00000180: 7839 813f 3a0f 803f 05e3 803f 6cfa 803f
00000190: fb38 7f3f fcc7 813f 8446 813f ccb7 803f
000001a0: 429b 7f3f 222e 843f 8b23 803f 5dc4 803f
000001b0: 3529 803f 0c50 803f e3f6 7f3f 5d3b 803f
000001c0: 3a8f 803f 4914 803f 0efc 7f3f 0a5a 803f
000001d0: df3e 813f dd1d 803f e6c2 803f e01b 803f
000001e0: 388b 803f 1e6c 813f ae7f 803f 1ddb 7f3f
000001f0: 5630 803f 41ec 803f 3407 833f 064f 803f
1.0645204 1.0003513 1.0059296 1.0039979 1.0048022 1.0055352 0.9974247 1.0027779
1.0068486 1.0213052 1.0043797 1.0077786 0.9979392 0.99728566 1.0059348 1.0112616
1.016626 1.000845 1.0121099 1.0006442 1.0089482 0.9988836 1.0078431 1.003983
1.0051216 1.0028944 1.0019287 1.0040653 1.0016196 1.0015336 0.99314964 1.0004723
1.0003579 0.99932396 1.0032434 1.0012355 1.0059457 1.0098846 1.0073076 1.0008575
1.014215 1.015257 1.001882 1.0096327 1.0067605 1.0011637 1.0049375 1.0192233
1.0060555 1.0036765 1.0021005 1.00188 1.0145937 1.0063999 1.0037487 1.0064996
1.0103658 1.0017018 0.9991736 1.0139455 1.003608 1.0276496 1.009292 1.0058419
1.0717331 1.0044729 1.0090437 1.007819 1.0065093 0.9967827 1.0060977 0.9976963
0.99932915 1.019667 0.99951917 1.0026547 1.0045065 1.0056138 0.9980377 1.0062122
1.0163839 1.0070556 1.006051 1.0079716 1.0012275 1.0008544 0.9953994 1.0023756
0.99865836 1.0030584 1.0048172 0.9999921 0.9981366 1.0040797 1.0106655 0.99846417
1.0095663 1.0004647 1.0069281 1.0076423 0.9969632 1.0139155 1.0099645 1.005609
0.9984628 1.0326579 1.0010847 1.0059925 1.0012575 1.0024428 0.99986094 1.0018116
1.0043709 1.000619 0.9999398 1.0027478 1.0097312 1.0009114 1.0059478 1.0008507
1.0042486 1.011112 1.0038965 0.99943715 1.0014751 1.0072099 1.0236573 1.0024116
